model-weights/amazon.pth (torch, 451859 bytes, 48 tensors)

gnn_list.0.proj_edges.net_upu.0.weight f4 [128, 128]
00000000: 4e19 393e 270b ad3d 495d af3d 3011 bcbc
00000010: a0ba 48bd 823e a3bd daac 893d b5e4 02bd
00000020: 2479 49bd 6b2e bbbd b66a be3d 902a eebd
00000030: e6b2 c53c 9a63 12be 6172 34bd 0b4f c0bb
00000040: fc96 d53b eff2 a6bd 4596 4abd 4d85 81bd
00000050: d702 4a3e b785 a6bd 6699 35bd b5da 0cbd
00000060: c6a1 2abd 4a78 df3d 68a5 93bc 930e 25be
00000070: 7125 0e3d b8ec 85bc 9ca3 43bc fc03 9bbd
00000080: eef6 393e 680f 003e 4400 f63d 2019 91bd
00000090: c52c bb3d 67a2 93bd 65e6 bbbd 4c80 3abd
000000a0: 4488 85bd 1c00 573c 1ec1 9ebd bd6a f23c
000000b0: 8ab8 443e c574 413e 80a8 4d3d 07ee f93b
000000c0: 4858 69bd 27af 3bbc 0cc0 e0bd c100 db3d
000000d0: 95d8 8b3d c360 723c c074 6d3d 3ad6 193d
000000e0: 6ab4 6a3c 0c8e 0b3d 3cb2 b73d 2bec ac3c
000000f0: 2835 35bd 4c7c b2bd f778 5fbe c2ae fd3c
00000100: 9bd3 8abc 18b0 2cbd 4108 3abd fc61 273e
00000110: 703f eb3d ad20 0a3e f932 89bd c764 57be
00000120: 20d1 43bd 7550 95bd 1177 6bbb b5d8 6fbd
00000130: b599 7cbd 878e 813e 2cd3 823d bd24 803e
00000140: 051d 35bc 82ea ce3d 2ac9 c6bd c6f9 44bd
00000150: ba28 153e 2eb1 a1bd 82ee adbd b409 0f3e
00000160: 82ab 063e fc0b 1f3e 22d2 97bd 24f1 23bd
00000170: ad14 b4bc 70b6 42bc f26a 4f3d 0a04 0dba
00000180: d098 cd3d e4dd 453e d27a 143d 7435 a7bd
00000190: 9c5e 70bb 327b 2bbe 173e 4e3e 38eb 84bd
000001a0: 1153 1ebe 50f5 b7bd 7d47 c4bd 776c 2abc
000001b0: d2c0 1b3e e171 82bc 47f5 37be d8b4 fcbd
000001c0: f533 3e3c 0c07 30bd ae3f c0bc 2d28 e63d
000001d0: c531 b43d bceb f03c ff28 9f3b b27a 00be
000001e0: 1c91 803d ac87 d73d 4100 0c3d 8128 343d
000001f0: 7760 0dbe 5707 f63d 60ba 9b3d f407 573d
00000200: 85fe 85bd c20c 0c3d 41c8 dbbd d12f f63d
00000210: 3cbc eabd 9de1 3f3d a820 553d 1e60 4d3e
00000220: fa02 c8bd 69af ca3d 0ba9 b83d deec a73d
00000230: c5c4 c43d 5fdc 91bd f4b4 e53c 8945 3fbe
00000240: cf69 243d bde6 edbd 9843 433c fb62 1d3e
00000250: 6f6b 5cbd 76ad 023d a914 16bd b6cc d0bd
00000260: bda5 f33b a99f c33c 4c0e 23bd faf1 43bd
00000270: 3bcc 57be 1fd5 2fbe ceb5 223e 1c20 9f3d
00000280: 01df 163d a070 2c3c 25a3 a3bd d78f 833c
00000290: 23d2 203d 8eac 03be 5b53 173e 169a 95bd
000002a0: 04d9 fdbd 72df e73c f73f 0abe 7efb af3d
000002b0: dfce 35bd cd0a 163e 1f61 ecbd 4b30 b9bd
000002c0: c7d7 d0bb 9039 2cbe 4684 c23d b7c4 8b3d
000002d0: 90b3 b1bd 2478 ddbc aa8b 1ebd 62b5 183e
000002e0: 72de 013e bbb3 c2bd f917 a4be ba81 cbbd
000002f0: 0614 713b 0107 6c3d 9a40 f7bd c117 0fbd
00000300: 0aae a83d eaca 19bd 2bf3 a63c 7686 113e
00000310: 1ec8 c73b d8e6 20be adea a3bc 9df8 babc
00000320: 0019 413d 4ec7 4fbc 1d84 c4bb f451 8cbc
00000330: c269 3abe f5d8 57bd 8faf 63bd 749f ab3d
00000340: c26c 443c 49de 093d 1850 a73d af1e 843d
00000350: f06e b6bb 0585 a5bb 799c 403d 77e5 f3ba
00000360: fc19 da3d 3376 55bd bba4 0b3d 4cfc 7a3c
00000370: b729 48bd f623 bc3a 1d20 99bd eb13 8ebd
00000380: 7a94 f03d 4466 b23d 5657 fdbd 5369 833d
00000390: f3b9 813d 4731 963d 549a b9bd 0dff febc
000003a0: 9b58 08be 6e29 99bc 2927 b43d 88d6 67bc
000003b0: 1e2e 44bd ffd8 fa3d efee d3bc c6be 9dbd
000003c0: ffef 7ebc 6b98 a33b 492d 123e 502a ba3c
000003d0: 055f 93bd c445 23bd 15be ef39 630d dc3c
000003e0: 8879 14be cb92 cf3d 2f7f ff3d 99f7 48be
000003f0: 575e 7e3b 8cf5 0dbd 9546 af3c b139 4bbc
0.18076059 0.08449393 0.085627146 -0.022957414 -0.049006104 -0.07970907 0.06722422 -0.031956393
-0.049187794 -0.09139713 0.09297697 -0.11629212 0.024133157 -0.14295807 -0.044054393 -0.0058687977
0.006518243 -0.08151805 -0.049459714 -0.06324253 0.19727646 -0.08130973 -0.044335745 -0.034388263
-0.041658185 0.10911615 -0.018023208 -0.16118841 0.034703676 -0.016348228 -0.011940863 -0.07569119
0.18160602 0.12505877 0.120117694 -0.0708487 0.091393985 -0.0720871 -0.09174804 -0.04553251
-0.06520131 0.013122585 -0.07751678 0.029591912 0.19211021 0.188922 0.050209522 0.007627252
-0.056968957 -0.011455334 -0.1097413 0.10693503 0.06828419 0.014793578 0.05797267 0.037557818
0.014325241 0.034071013 0.089695424 0.021108707 -0.044240147 -0.08715114 -0.21823488 0.03096712
-0.016946604 -0.042160124 -0.045418028 0.16345972 0.11486709 0.13489027 -0.066991754 -0.21034537
-0.04780686 -0.072907366 -0.0035929123 -0.058556277 -0.061670024 0.25304052 0.06387934 0.2502803
-0.011054282 0.101033226 -0.09706338 -0.048089765 0.14566317 -0.078951225 -0.084927574 0.13968545
0.13151363 0.15531915 -0.074131265 -0.04002489 -0.021982515 -0.011884317 0.0506391 -0.0005379325
0.10038912 0.19322926 0.036249943 -0.08164492 -0.0036677485 -0.16746214 0.20140873 -0.06490177
-0.15461375 -0.089823365 -0.09583948 -0.010401837 0.15210274 -0.015923442 -0.1796466 -0.12339181
0.011609067 -0.04297547 -0.023467865 0.11238132 0.08798555 0.029409282 0.004857182 -0.12546805
0.062776774 0.10523924 0.03417993 0.04398394 -0.1380633 0.12013119 0.076039076 0.05249782
-0.065426864 0.034191854 -0.10731555 0.12020839 -0.11461684 0.04684602 0.052033097 0.20056197
-0.09766193 0.09896738 0.090166174 0.08199476 0.09607843 -0.071221106 0.028040387 -0.1867887
0.04013997 -0.116162755 0.011917971 0.1536979 -0.053813394 0.031903706 -0.036640797 -0.101952955
0.007435529 0.023879843 -0.039808556 -0.04783819 -0.21074001 -0.17171143 0.15889665 0.07769796
0.036833767 0.010524899 -0.07990102 0.0160598 0.039262902 -0.12858793 0.14777891 -0.0730478
-0.12394908 0.02830479 -0.13500963 0.0859289 -0.04438674 0.14652558 -0.11541962 -0.09042414
-0.006373379 -0.16818833 0.094978854 0.0682463 -0.08676827 -0.027034827 -0.038707413 0.14912942
0.12682512 -0.09506937 -0.3204954 -0.09936853 0.0036785617 0.057623867 -0.12072869 -0.034934763
0.0823632 -0.03754703 0.020379623 0.14211449 0.006096854 -0.1571306 -0.020009363 -0.022823626
0.047142982 -0.012681795 -0.0059971944 -0.017128922 -0.18204406 -0.05269714 -0.055587348 0.08380023
0.0119888205 0.033659253 0.081695735 0.06451165 -0.005567424 -0.0050512576 0.047024224 -0.0018607815
0.106494874 -0.052114677 0.034092646 0.015318941 -0.048867907 0.0014353979 -0.07476828 -0.06937393
0.1174707 0.08710912 -0.12370174 0.064165734 0.06334295 0.07333618 -0.09062639 -0.031127477
-0.1331505 -0.018696513 0.08796532 -0.014150269 -0.047895543 0.1224842 -0.025870768 -0.07702403
-0.015560149 0.004992535 0.14275087 0.022725254 -0.07195858 -0.039861456 0.00045727254 0.026861852
-0.14499485 0.101354204 0.1247543 -0.19625701 0.0038813555 -0.034658 0.02139596 -0.012403891

gnn_list.0.proj_edges.net_upu.0.bias f4 [128]
00000000: 6e7e d43b db79 6fbd 5dc8 12bd ffcc 02bd
00000010: 3920 55bd 8ace 1abc 8d8b 603d 874c 073b
00000020: 6121 03bc e5ca 833c a021 af3c c1c2 c93c
00000030: 74b2 ae3d 8fd9 79bc 9435 01bc fcc2 413c
00000040: 22c3 133d 198a 08bd 26e7 27bd 46e4 cd3c
00000050: 9210 e53c fcba c53c 8a23 13bb a49c 0e3d
00000060: 76f7 aa3c 53d1 88bd ac19 75ba 44e9 033d
00000070: 83fa 2d3d 906c 12bb 6c45 fa3c 2b0c 753d
00000080: 7e1f 13bd b2ff fdbb 8641 853c 9329 a13c
00000090: b8e4 093d f5f6 b5bc cba8 893c 7ce1 ebbb
000000a0: 62bd 633b ba78 09bc 7eb1 563d f5e7 153d
000000b0: 90cc b13c 1899 9d3d 3f33 efbc 1242 423d
000000c0: 4c8e e43c 36a6 053c 5e5e f7bc e101 22bd
000000d0: cbca 16bd bcdf 8a3c 5f86 60bd 2415 78bc
000000e0: d2b9 573c 2c09 a63c 536f 03bd 3ae5 a43b
000000f0: 1987 d6bc dbc6 2cbc 615d e33b 25c2 57bd
00000100: 8073 8d3d c3f4 70bd 1200 10bd 8b32 7d3d
00000110: dc7b 253d a45c 7bbd 96fe c63c ed45 3fbd
00000120: 6871 02bd 3ff2 393d 28f7 a5ba c42d 89bb
00000130: 1737 053c 2274 143d a29c cf3c 1c8f e9bc
00000140: 2387 a83c 9dff 7a3d 3309 823d 75e1 84bd
00000150: 9f02 723d e010 28bb e7e4 9a3c 01b0 70bb
00000160: 3298 b1bb 6547 653c 91b4 3cbd 6b82 ea3c
00000170: b27e ecbc bb36 54bd 85b9 d23c c90d 12bd
00000180: d189 8cbc 91ad a2bc 8a37 383a 2926 0d3d
00000190: f1fa 94bb 09b9 7abb 0280 52bd f1a3 d33c
000001a0: b435 88ba ca5c 2b3d fa55 9f3c 2f83 10bd
000001b0: 2bce 62bd f366 3c3b a298 293c 426e a13c
000001c0: bf62 b23d a1d5 45bd 141f 17bd 8327 92bb
000001d0: b679 29bc 50ac 2d3c 2328 b63c 0b9d a0bc
000001e0: 67d7 323d 7cfe d4bc f71c 09bc a3f8 a5bc
000001f0: a3f6 fcbc e33a cf39 8566 c7bc cf72 ddbc
0.006484798 -0.05846582 -0.035835613 -0.03193378 -0.052032683 -0.009448657 0.054820586 0.002064498
-0.008003564 0.016087959 0.021378338 0.024628999 0.08530131 -0.015249624 -0.007886309 0.011826273
0.036074765 -0.033334825 -0.040991925 0.025133263 0.027962003 0.024137013 -0.0022451603 0.034817353
0.020869952 -0.066805504 -0.00093498337 0.03220488 0.042475235 -0.002234254 0.030550681 0.059826057
-0.035918705 -0.0077514285 0.016266596 0.019673144 0.03366539 -0.022212485 0.01680412 -0.0071985107
0.0034750332 -0.0083906 0.052415363 0.036598165 0.021703988 0.07695216 -0.02919924 0.04742629
0.027899884 0.008157304 -0.030196365 -0.039552573 -0.036814492 0.016952388 -0.054815646 -0.015141759
0.013166862 0.020268045 -0.03208859 0.0050322087 -0.026187466 -0.010545458 0.006938622 -0.052675385
0.069067955 -0.058827173 -0.035156317 0.06181578 0.040401325 -0.061367646 0.024291318 -0.046697546
-0.031846434 0.04539704 -0.0012662159 -0.004186364 0.00813081 0.036243565 0.025343243 -0.028510623
0.02057225 0.061278928 0.06349411 -0.06488315 0.05908453 -0.0025644824 0.018907977 -0.0036726
-0.0054197544 0.013994073 -0.04607064 0.028626641 -0.028869007 -0.051810008 0.025723228 -0.035657678
-0.01715556 -0.019858154 0.0007027319 0.03446022 -0.004546516 -0.0038257262 -0.05139161 0.02583501
-0.0010391981 0.041836537 0.019450177 -0.035281356 -0.0553724 0.0028747886 0.010351332 0.019705895
0.087102406 -0.048299436 -0.036894873 -0.0044602766 -0.01034396 0.0106001645 0.022235936 -0.019606134
0.043662455 -0.026000254 -0.008368722 -0.02026016 -0.030879324 0.0003952599 -0.024340877 -0.027032284

gnn_list.0.proj_edges.net_upu.3.weight f4 [128]
00000000: 592f 803f a284 863f 2b01 873f d7da 753f
00000010: e4a4 6d3f 82d8 7e3f e6f7 7c3f edd7 793f
00000020: 0271 813f 497d 7b3f a15d 7f3f afc7 793f
00000030: 55ff 733f 1d3e 763f 346d 733f 2efe 703f
00000040: 2bff 803f ea58 7c3f 6042 823f 553c 753f
00000050: 4557 8d3f 9ead 753f 0ea3 7f3f a1a2 823f
00000060: ad5f 803f 85d9 873f 6d68 823f bb2b 833f
00000070: b77f 833f 9840 823f 6278 6e3f 18c8 893f
00000080: 0150 813f c323 7d3f 6b74 7c3f 3def 6d3f
00000090: e132 833f 61ac 803f b203 743f 677f 813f
000000a0: 4257 733f 7e76 633f cc06 803f 5ae7 7f3f
000000b0: e9a1 813f 88b6 903f ff80 723f ef10 7d3f
000000c0: 39cb 823f 527a 6e3f 82ad 7b3f 1527 7a3f
000000d0: b9ea 813f f150 813f 5f88 6d3f 1fe1 7b3f
000000e0: 9b49 7f3f 445f 863f 4df1 7f3f 5879 883f
000000f0: 34db 723f 1850 753f 378a 8c3f 78d9 763f
00000100: b3da 7f3f 085f 873f 4741 763f 01e1 843f
00000110: 3288 743f c7eb 843f 92d5 743f 737d 7f3f
00000120: 4c90 7e3f 1dae 7c3f 3188 843f ccdc 813f
00000130: 0ea5 813f b185 873f 6415 7d3f b071 753f
00000140: 6f75 723f c3ee 8b3f 0f90 833f b1d9 833f
00000150: 08a9 883f 2414 833f d43c 863f 7ef0 7b3f
00000160: 35c1 7d3f 2043 733f 03d3 813f 08e4 803f
00000170: 4e83 6b3f 0f79 823f 25a4 7b3f 42d2 833f
00000180: 3ecc 7c3f e7b3 703f 60d8 7f3f c8c0 7f3f
00000190: 586e 853f 6fc1 813f b79f 773f 06f0 783f
000001a0: 718a 7c3f bb7e 833f 8147 663f f2ff 823f
000001b0: f008 7f3f 9a17 823f ac66 803f 1781 8b3f
000001c0: 92b4 843f d110 853f 2f54 6f3f 7b47 7f3f
000001d0: 4b37 873f 2afd 7f3f c867 803f eebf 813f
000001e0: f1d9 7b3f cfb8 793f 619f 743f d005 843f
000001f0: 5ad5 823f 8282 723f 80f5 773f e332 823f
1.0014449 1.0509226 1.0547231 0.9603705 0.9282973 0.99549115 0.98815763 0.975951
1.0112612 0.98238045 0.9975224 0.9757032 0.9531148 0.9618853 0.95088506 0.9413785
1.0077871 0.9857317 1.0176506 0.95795184 1.1042258 0.95968044 0.99858177 1.020588
1.0029198 1.0613257 1.0188118 1.024772 1.027335 1.0175962 0.9315244 1.0764189
1.010254 0.98882693 0.9861514 0.92943174 1.0249902 1.0052606 0.9531814 1.0117005
0.9505502 0.8885268 1.0002074 0.9996239 1.0127536 1.1305704 0.9472808 0.98853964
1.0218269 0.93155396 0.98311627 0.97715884 1.0149757 1.0102826 0.9278621 0.9839038
0.9972169 1.0497823 0.9997757 1.0662031 0.9486573 0.9582534 1.097968 0.9642558
0.99943084 1.0575876 0.96193355 1.0381166 0.9552032 1.0384454 0.9563838 0.99800795
0.9943893 0.98703176 1.0354062 1.0145507 1.0128496 1.0587674 0.98860765 0.958766
0.9471044 1.0932239 1.0278338 1.0300809 1.0676584 1.0240521 1.0487313 0.98413837
0.99122936 0.950243 1.0142521 1.006959 0.9199723 1.0193194 0.9829734 1.029854
0.9874915 0.9402451 0.9993954 0.99903536 1.0424299 1.0137156 0.9672808 0.97241247
0.98648745 1.027305 0.89952856 1.0234358 0.9962301 1.0163453 1.0031333 1.089877
1.0367606 1.0395757 0.9348783 0.99718446 1.0563749 0.9999567 1.0031672 1.0136697
0.9837943 0.9754762 0.9555569 1.0314274 1.022136 0.9473039 0.9685898 1.0171779

gnn_list.0.proj_edges.net_upu.3.bias f4 [128]
00000000: e0ea 32bd 425a 87bd c20a aebd f457 1fbb
00000010: f252 92bd 0783 b1bb 7576 b03d a86a ba3c
00000020: 47ed 28bd 9c9d d53c 0f60 a43c 54da 963c
00000030: 1394 8d3d ad2d 253c 8b2c 553d c55d 9cbc
00000040: 5732 a33c 1fb3 29bd 9290 b4bc b0d7 233b
00000050: fb8d 8d3d b54d 423c caac 1abb 37e3 26bc
00000060: 6cef 213c 9ed8 83bd 59cd f53c b9c6 343d
00000070: 9dbb 393d 3351 c4bb f619 203d 303a 953d
00000080: db3b 30bd b48e e5b8 96e8 0b3d e47e f03b
00000090: faf8 123d 17ff 3bbd 5cc3 163d eadf d13c
000000a0: 8429 283d 5b92 813c 83ba 023d 9598 6c3d
000000b0: 929d f03c 8585 be3d f593 aebc c127 ea3c
000000c0: 9892 d73c 51c2 f73b 2bae 3fbd e1c8 fc3b
000000d0: 35f8 82bd 5092 b13b d54d 56bd a601 e3bb
000000e0: cebf 5cb9 34ea 70bc c2a6 36bd 0010 163d
000000f0: 9103 1cbc d93d 43bb 4c56 023d b672 93bd
00000100: fa81 8e3d 80f7 8cbd 997a 2ebd f7d6 a33d
00000110: e00a 743d 26d4 afbd 2dac c43c e36e 1ebd
00000120: fa41 28bd d069 03bc 662d 0cbd 2d85 ef3b
00000130: a7b3 9abc d220 0b3d 9a5b e23c 0260 c83b
00000140: c5ce 0a3d d7a4 313d 364d 5e3d 698a afbd
00000150: ee19 903d 8811 1fbd 4cfa 5e3d fc73 2fbb
00000160: 786f 85bd 7032 eb3c 5ed5 c1bd 3380 e43a
00000170: 8825 51bc 145c 89bd 677a 43bb 5a93 11bd
00000180: ad35 13bd 0063 a93c 09bf 3dbd c9c3 20bc
00000190: f7fc 0f3c cc56 30bd 3bcf 45bd 5e4c 7d3c
000001a0: 7931 2cbc 71c1 073d 098b 86ba 22b9 d4bc
000001b0: 6516 9cbd 5c3b e3bc 3f5b 9a3c 64dc f93b
000001c0: 520c f33d 58b3 1cbd 8269 4abd 92d3 01bd
000001d0: 0bee 4bbd eabc 14bd 77d4 fb3c 7805 49bd
000001e0: 9a5d 353d 74d1 79bc b729 35bc 4761 f8bc
000001f0: c130 0ebd d79d a5bc 1910 11bd ab5b adbc
-0.043681026 -0.06609012 -0.08498146 -0.0024313899 -0.07144727 -0.005417231 0.08616344 0.022755936
-0.04124191 0.02607613 0.020065336 0.018414654 0.069130085 0.010081691 0.052044433 -0.019087682
0.019921465 -0.04143059 -0.022041593 0.0025000386 0.06911846 0.011859347 -0.0023601525 -0.010186008
0.009883743 -0.06437801 0.030005144 0.04413483 0.045344938 -0.005991125 0.03908726 0.07286489
-0.043025833 -0.000109461515 0.034157358 0.0073393453 0.035881974 -0.04589757 0.036807403 0.025619466
0.041055217 0.015816858 0.031916153 0.0577627 0.02937201 0.093028106 -0.021310786 0.02858341
0.026315019 0.007561006 -0.04679696 0.0077143763 -0.06394998 0.005419053 -0.05232032 -0.0069276867
-0.00021052288 -0.014704276 -0.044592626 0.036636353 -0.009522335 -0.0029791503 0.03182058 -0.07199614
0.06958385 -0.068831444 -0.042597387 0.07999986 0.059580684 -0.08585386 0.024007881 -0.03867997
-0.041078545 -0.008020833 -0.034222983 0.007309577 -0.018884493 0.033966847 0.02763157 0.0061149606
0.033888597 0.043370094 0.054272853 -0.085713215 0.07036196 -0.03883508 0.05443792 -0.0026772013
-0.065154016 0.028710574 -0.09464525 0.0017433226 -0.012765296 -0.06707016 -0.0029827596 -0.035540916
-0.03593986 0.02067709 -0.046324763 -0.009812304 0.008788339 -0.043051526 -0.048293334 0.015460102
-0.010509842 0.033143464 -0.0010264824 -0.025967184 -0.07621459 -0.027738266 0.018842338 0.0076251496
0.11867584 -0.038256973 -0.049417026 -0.03169591 -0.049787562 -0.036312975 0.03074096 -0.04907748
0.04427872 -0.015247691 -0.011057309 -0.030319823 -0.034714464 -0.020216865 -0.035415743 -0.021161875

gnn_list.0.proj_edges.net_upu.4.weight f4 [64, 128]
00000000: 8e08 10be edd1 75be f419 723d 84f7 89bd
00000010: 3baf 3bbd 7e69 1c3d 1220 973d 2d59 d6bd
00000020: adb2 89be 6190 0b3e d817 f73d 94fd bcbd
00000030: 3efc 6e3d b350 dd3d 8538 04bd 93cc 2fbd
00000040: df25 35bc 08ec 9f3e e6f0 41be 5980 2b3e
00000050: e98e 4e3d 8d1c 0bbc 3dde 18bc 6ece 2dbe
00000060: 41e0 9abd a835 09be b450 dfbd 7da3 363a
00000070: adca 783d 6c05 9abc bc5b 9ebb 339a 103d
00000080: 62dd 4fbc c31e b53b 9bf7 5ebd c360 35bd
00000090: a1f5 133e 287d 4bbe df4a 923d 60b9 a03d
000000a0: 695a 51bd e377 85be 2cae b33b 9717 ff3d
000000b0: c0a2 24bc b214 b53b 4bdb 203d cc3d 8c3e
000000c0: d7b0 6c3e 63ca b5bd 079a babd 70e7 d23c
000000d0: 4120 6b3d fe89 0fbc c2cf 8ebd ca01 e13d
000000e0: a928 b8bd c9ae 4c3e e4b4 82be 861f 213e
000000f0: 748c 7c3d e420 eb3d 3a2e e33d 55ae d1bd
00000100: 6a46 67bd f4bd 10bd e507 ddbc fcd3 513e
00000110: 6476 c93d 1559 c3bd 11da 48be d8e3 7bbd
00000120: 8094 74bd 5f01 14be 1fef 2fbe 495a dc3d
00000130: 7328 783d 35a7 07bd 03f8 803d ab30 f5bd
00000140: 9682 ba3d 0b64 51bb 15cf 093e 79df 2cbe
00000150: c410 163e 9b28 ec3d 0ff6 2f3e 7ffc 01be
00000160: 1ab4 aebc c8c4 dd3d 54e9 00be ebf6 b33d
00000170: 1af9 1f3d c6ae 8bbd 79c9 0dbe e2ff 6b3d
00000180: 68e0 54be a150 8e3c 4d1b 8d3d 1c12 283e
00000190: b2f5 893d 67a3 45be dd67 0abe d764 103e
000001a0: 5ffb c3bd 96df 4a3c 9cc1 843d 551d e2bd
000001b0: 0402 1ebe f03e cd3c be56 0b3d 41ae 03bc
000001c0: 8e54 db3b b910 51bd b524 f5bd 7e92 19be
000001d0: 4f54 d5bd fd3d 503d 4d3d 1fbd f6e4 e4b9
000001e0: 5458 ed3d 2331 d8bd 314f c1bd d964 bfbd
000001f0: 7b51 39be f3bb b1bd ae32 293e 9f76 1cbe
00000200: e7e4 ba3c 3266 8cbd 34cb 12bc 9b85 f2bc
00000210: b63f 04bd a003 793e 89ce 7a3e 4b3c 48be
00000220: f732 15bd 68bf 173e 7323 01bd 145a 90bd
00000230: d6f8 1f3e 0ae0 e1bd 1fc5 86bd 324c 7cbd
00000240: 89c1 27be 23b4 32be 84c2 053d d8b4 1dbe
00000250: 991c 5ebd 1572 cebd 8e25 d9bb 727e c43c
00000260: d36e 853e 2a88 35be 93a4 94be 2604 b83e
00000270: 0194 07be 3023 d03d dc11 d8bd bcce b03d
00000280: 512f 11be e15d 3d3e 0677 1e3e 6706 f4bd
00000290: 0419 13bd abfc d93d 5678 863d 0ad9 903e
000002a0: 4c03 803d dd5e a1bd 56ae 093d cb95 00be
000002b0: daa1 263d 26ab 663e 2973 853d 56be 8abd
000002c0: 8701 e23d 5edc 35be a5a9 973d 921e f33d
000002d0: cf97 a4bd 6439 55be d471 27be 57a4 9dbd
000002e0: d671 31bd 5a7d 70be 53dd 75be 0558 523e
000002f0: 31b6 09be abf3 ca3c 955d 0b3e 3709 593c
00000300: 73c0 143c aad2 3fbe dd5a f1bd 906b 563d
00000310: 0402 57bd 2df9 15be eb38 e4bd d0c2 c2bd
00000320: 8ffb cf3d a967 49be ed48 8a3d fa4a a0bc
00000330: d508 033e d57d e63d 6911 5a3d 4a77 4cbd
00000340: fff5 133e 9401 8e3e c4d4 c43d c5d4 87bd
00000350: ac04 36bd 1a0c aebc 2288 093e f7e8 9b3d
00000360: c37a 083e 8ff9 cb3c ed28 bbba 08c6 e1bc
00000370: 1f57 553d b919 d6bd c028 3b3e a024 f0bd
00000380: cd1e 093d cf9b e23b dbfa 62be 6f07 d2bd
00000390: e2bf d73d 69ce 233d d118 8a3c d3ff 2cbd
000003a0: 3e7d 0cbe a641 343d f387 23bc 4a8c 08be
000003b0: 0deb 7e3b 7e04 3e3e ff53 4fbe eec7 443e
000003c0: 9234 933d c313 ebbc 44b3 e6bd fd0c e63d
000003d0: e051 653e 8c61 093d bcd4 933e 24dd 0b3d
000003e0: 2762 00bd 7fac aebc fa6d 163e 7b4a 54bc
000003f0: 5dfe 9cbd d359 403d 6483 593c 214c 613d
-0.14065763 -0.24005862 0.059106782 -0.06736663 -0.04582141 0.038186543 0.07379164 -0.10466228
-0.2689413 0.13629295 0.12065095 -0.09228054 0.058346026 0.10806408 -0.032280464 -0.042919707
-0.011056392 0.31234765 -0.18939552 0.1674818 0.05042926 -0.008490694 -0.0093303295 -0.16973278
-0.07562304 -0.13399374 -0.10904065 0.00069671107 0.06074016 -0.018801413 -0.004832713 0.035303306
-0.012687059 0.0055273487 -0.054435354 -0.044281732 0.14449169 -0.19871962 0.07143187 0.078478575
-0.051111612 -0.2606803 0.0054834094 0.12455671 -0.010048568 0.0055261487 0.039271634 0.27390897
0.23114334 -0.08876493 -0.0911141 0.025745124 0.057403807 -0.008760927 -0.069732204 0.10986669
-0.0899213 0.1998855 -0.25528634 0.15734681 0.061657384 0.11480883 0.110928014 -0.10238329
-0.056463636 -0.035337403 -0.026981303 0.20491022 0.09837034 -0.095384754 -0.19614436 -0.061496586
-0.059711933 -0.14453648 -0.17181061 0.10759408 0.06058545 -0.033118445 0.062973045 -0.11972173
0.091069385 -0.00319505 0.13457902 -0.16882123 0.14654833 0.115311824 0.17183708 -0.12693976
-0.021326113 0.10828549 -0.12589008 0.0878733 0.03905592 -0.06820445 -0.13846387 0.057617076
-0.20788729 0.017372431 0.06889973 0.16413158 0.06736316 -0.19300614 -0.13516183 0.14100967
-0.095694296 0.012382409 0.064822406 -0.11040751 -0.15430456 0.025054425 0.03401827 -0.008037151
0.0066934293 -0.05104134 -0.11969892 -0.14997289 -0.10416471 0.050840367 -0.03887682 -0.00043658138
0.11589113 -0.10556247 -0.09438933 -0.09345407 -0.18097489 -0.086784266 0.16523239 -0.15279625
0.022814227 -0.0685543 -0.00895958 -0.029604724 -0.032287322 0.24317789 0.2449285 -0.1955425
-0.036425557 0.1481911 -0.031527948 -0.07048431 0.15622267 -0.1102906 -0.065805666 -0.061596103
-0.16382422 -0.17451529 0.032656208 -0.15401018 -0.05422649 -0.10080353 -0.0066267913 0.023986075
0.26061115 -0.17727724 -0.2903181 0.35940665 -0.13240053 0.101629615 -0.105502814 0.086331815
-0.14178206 0.18492843 0.15475091 -0.11915284 -0.03591253 0.10643896 0.06565921 0.28290588
0.06250629 -0.07879422 0.033613525 -0.12557141 0.040681697 0.22526225 0.06516106 -0.06774585
0.110354476 -0.17759845 0.07405404 0.11871065 -0.08036768 -0.20822674 -0.16352016 -0.07697361
-0.043321453 -0.23485318 -0.2401021 0.2054139 -0.13448407 0.024774393 0.13609917 0.013246826
0.009079087 -0.18732706 -0.11784909 0.052348673 -0.052492157 -0.14645834 -0.11143669 -0.09509814
0.10155403 -0.1966845 0.06752191 -0.019567002 0.12796338 0.11254469 0.05323926 -0.04991845
0.14449309 0.2773558 0.09610894 -0.066323794 -0.04443805 -0.021246005 0.13430837 0.07612794
0.1332808 0.024899272 -0.0014279165 -0.027560249 0.05208504 -0.10454125 0.18277264 -0.11725736
0.03347664 0.0069155465 -0.22166006 -0.10255324 0.105346456 0.03999177 0.016857537 -0.04223616
-0.13719651 0.04400792 -0.009981143 -0.13334766 0.0038897425 0.18556401 -0.20246886 0.19216892
0.07187761 -0.028695947 -0.11264661 0.11232946 0.22394514 0.033540294 0.2887324 0.034146443
-0.031343605 -0.021322487 0.1469039 -0.012957211 -0.076657034 0.046960663 0.013275955 0.055004243

gnn_list.0.proj_edges.net_upu.4.bias f4 [64]
00000000: 7da5 cc3d 9871 703d 9507 b0bc cddc 26ba
00000010: 13f1 73bd c998 0bbd f617 463d f013 3e3d
00000020: c37d a73b cef7 91bd b41e ab3c c3c8 9fbb
00000030: d57e 69bd dc31 203d 1d5c 28bd 7acd d9b9
00000040: f865 73bd e4e8 203d 2334 e83c c23b ed3c
00000050: 6f25 5e3d 1323 4dbd 11cc a53a 1547 8cbd
00000060: 9972 083d f37e 78bb c94a 903c fb52 013d
00000070: 4bc4 bc3b 6ddc 133d 98cd bfbc b052 203d
00000080: 91f6 8c3c 59c1 7b3d bc31 a1bb 9928 08bc
00000090: 03ed 79bd 740b 3ebd 7af1 e7bd d0a5 263b
000000a0: 84d6 2fbc b21e 973c 620a e7bb 8a17 35bd
000000b0: 18c8 1f3c b04a 6fbb 3cc9 953c 26fd 60bc
000000c0: 8c0e 97bd 8a87 12bc ad40 01bd ef8d abbb
000000d0: 419c 743b 469b be3c 6b4d b0bd 5a9f 303d
000000e0: 9e4a 83bc b270 eb3c 386c 8abc 0044 853b
000000f0: 5f5e 193d 2015 c93b 64dd 5e3d 9eae 053e
0.09992502 0.05870208 -0.02148799 -0.00063652993 -0.05955608 -0.034081254 0.048362695 0.046405733
0.0051114275 -0.07127343 0.020888664 -0.0048762276 -0.057005722 0.03911005 -0.04110347 -0.00041542557
-0.059423417 0.0392846 0.028345173 0.028959159 0.05423492 -0.050082278 0.0012649318 -0.06849495
0.033312414 -0.0037917465 0.017613785 0.031573277 0.0057607046 0.036098886 -0.023413464 0.039141357
0.017207416 0.061463688 -0.004919259 -0.0083104605 -0.061017048 -0.04639764 -0.11325355 0.0025428422
-0.010732297 0.018447254 -0.0070507983 -0.0442119 0.009752296 -0.0036513023 0.018284433 -0.01373223
-0.073758215 -0.008943448 -0.03155582 -0.0052354257 0.003732458 0.0232674 -0.08608516 0.04312072
-0.016026791 0.02874026 -0.016897306 0.004066944 0.037443515 0.0061365515 0.054410353 0.13054892

gnn_list.0.proj_edges.net_usu.0.weight f4 [128, 128]
00000000: e20d aebd 7043 d03c 1920 1a3e 6faf 1d3d
00000010: 380e 863c 2291 86be 9780 4a3d 7862 61bb
00000020: 8a65 43bd 0914 8dbd bb48 fbbd 976e 373d
00000030: 593e f13d a9d9 73bc a79f 14be ff97 453d
00000040: d717 853d c0ab 233e 187e 9c3c 5645 963e
00000050: 71b7 aa3d f8fe c5bb bb7a fb3c f102 7abe
00000060: 56a4 853d 7826 bc3d 46f3 7b3d f6c1 6abc
00000070: e70e aabd 1177 13be d7aa 04be 7699 17bd
00000080: 05f3 eebc ce5f 79bb dd5a c3bc b723 abbc
00000090: 33ec 30bd 22e9 c1bd b2f3 46bd 4889 65bd
000000a0: 4516 5ebd 63f3 50bd 5837 b23c 9417 c8bd
000000b0: c6ff bebd ecee 223d 2155 66bd 1cb5 76bd
000000c0: 7fbe 743b e538 a4bc 79c6 12bd f30e eebd
000000d0: bf97 d8bd 6e86 583e e59e e73d bf60 6bbd
000000e0: 5dcc 30bd 6909 88bc f3d2 86bd 76b2 41bc
000000f0: 3626 b03c 0b09 b9bc a3f4 823d ffb8 6abd
00000100: b591 a93c d19b 2fbd 65cc 7fbe 4afb 14be
00000110: 1c98 debc 0646 a43d 6f70 52be eb44 133b
00000120: 9dcb 3f3e 3187 ffbd 3ba3 8f3c ef94 0dbe
00000130: b93c a9bd d372 95bc 4373 acbc 0656 eebd
00000140: 312f 033b c12d 3bbe 0df1 8dbd 74b6 be3c
00000150: 7cd0 0b3e 4110 483d 85e1 a43d 4663 3ebd
00000160: 5335 f03d 7fd5 f03d b7d8 f43c 428f c7bd
00000170: 14b3 833d 8f26 653b 7df0 2a3e 185b 023e
00000180: f055 40bd 9993 d23b 7112 b93d 8b69 94bd
00000190: 1654 9bbc cf49 73bc 5cc6 9fbd 341e ebbd
000001a0: 6b2e 23bd 7831 babd bbfc 79bd e4a6 ef3d
000001b0: e0a1 aebd 137f 553e 7d21 61be 6c11 993c
000001c0: 4f21 3cbb f6e4 0c3d 2039 d43d 0b87 54be
000001d0: ba38 65be 4789 96bd 32f9 eabd 22ff f23c
000001e0: 72a6 a23d 4876 9f3d 2928 883c 0de0 d0bd
000001f0: 704f 163e 8f16 06be f58f 603d 4b19 0cbe
00000200: 8f81 65be ee03 2f3e f35f d9bc e688 293e
00000210: 2593 e7bd 80ff acbe 5ed6 f63b 105a f6bb
00000220: b3a2 71bb 1259 0cbe 3d71 9e3d 2e48 a63c
00000230: 9b6b cebc bf5c 70bd 4f0c a0b8 1477 543e
00000240: a98d 5f3d 9d4a 8fbd a8fb a73d fbb8 d63c
00000250: 762e 1f3d 2a5c 003e 4964 bf3d 4d96 8f3d
00000260: 7393 a1bd a26c e33c 028e 82bd 150f 8c3d
00000270: cfe3 d3bd c260 af3d 2fa2 d53c 33c7 5dbe
00000280: fc93 5f3d c634 07be 286e a63d 2cd2 e6bc
00000290: b6b0 69bd 5c27 2a3e 4d04 18bc d303 4b3c
000002a0: 512d 1ebe 1cd3 fcbc 31ad b8bc bf92 edbd
000002b0: c025 a2bb d465 933d c7e5 8c3a 732e 233e
000002c0: 6122 033e 8452 16bb cea9 553e cb23 383d
000002d0: a71f 7f3c 58f8 113d 9397 873d e1f3 4ebc
000002e0: c182 003d e4b5 463e 8829 8a3e 3fba 08be
000002f0: 9cfd 31bd eaaf 173d 3d81 0b3e 48af b93d
00000300: 56a2 6ebd 5d38 97bd 2c3b 1dbe 1863 2c3e
00000310: a858 123e aec8 2e3e fb7a 1abe 5973 35be
00000320: 26a2 0ebc 1f1d b9bd 0c54 6abd 0cd6 95be
00000330: 3c30 24be e2b4 e73c 8e41 8cbd 4d5c ce3b
00000340: 0dd0 d2bd 8c26 a53d 661b 803d a569 6e3e
00000350: 0ed7 2abd b20c 36bd a2db 47be 087f 743d
00000360: 8f53 6e3d c74c a0bd 093e b5bd e0d1 1e3c
00000370: 72e9 493d bfa3 b8bb cbf7 553e abad 113d
00000380: 2692 b83d 9317 4dbd 47f5 b33d 759c 243e
00000390: 8d1b 91bd 8d87 85bd 205c 85bd cbac 1c3e
000003a0: 6b01 16be 314e d63d 0aa0 7a3e 6523 09bb
000003b0: 61db 2c3e 58e9 d93d 8b07 a63c c9db a4bd
000003c0: 97ec 533c b557 773d 604f 8fbd 94e4 3e3b
000003d0: 632c d4bd f9d5 c93d 0008 edbd 585e a2bc
000003e0: d91d 09bd c190 063e 958e 07bc 41df bebd
000003f0: 2e30 fe3d e0e0 99bd 4ce6 3bbe 7218 62bc
-0.08498742 0.025422782 0.15051307 0.038497385 0.016364202 -0.26282603 0.04943904 -0.0034390967
-0.047704257 -0.06888587 -0.122697316 0.0447832 0.1177947 -0.014883437 -0.14514028 0.048240658
0.06498688 0.15983486 0.019103095 0.29349774 0.0833577 -0.0060423575 0.03069817 -0.24415185
0.06525485 0.09187025 0.0615113 -0.01432847 -0.08303624 -0.14400889 -0.12955795 -0.037011586
-0.029168615 -0.0038051489 -0.023847038 -0.020891054 -0.043194007 -0.09468295 -0.04857225 -0.056039125
-0.054220457 -0.05101336 0.021754906 -0.09770122 -0.09326129 0.039778635 -0.05623353 -0.060231313
0.003734499 -0.02004666 -0.03583381 -0.11623945 -0.10575818 0.21145031 0.113096036 -0.05746531
-0.043163646 -0.01660605 -0.06583204 -0.011822334 0.021502595 -0.02258732 0.06394317 -0.057305332
0.020699361 -0.042873207 -0.24980314 -0.14548984 -0.02717214 0.080211684 -0.20550703 0.0022471498
0.18730016 -0.124769576 0.017533889 -0.13826345 -0.08263535 -0.018243229 -0.021051055 -0.116375014
0.0020017142 -0.18279172 -0.069307424 0.02328036 0.13653749 0.048843626 0.08050827 -0.046481393
0.11728921 0.11759471 0.029888494 -0.09744121 0.06430641 0.003496561 0.16693301 0.12730062
-0.046956956 0.0064262864 0.090367205 -0.07246693 -0.018960994 -0.01484914 -0.07801506 -0.1148037
-0.03983919 -0.09091467 -0.06103204 0.11701754 -0.08526969 0.20849256 -0.21985431 0.018685065
-0.0028706377 0.03439804 0.10362458 -0.2075464 -0.2238492 -0.07350402 -0.114733115 0.029662672
0.07941903 0.07786232 0.016620712 -0.10198984 0.1467874 -0.13094543 0.054824788 -0.13681524
-0.22412704 0.17091343 -0.02653501 0.16556129 -0.113073625 -0.3378868 0.007532879 -0.0075180605
-0.0036870658 -0.13705853 0.07736442 0.02029809 -0.025197795 -0.0586822 -7.631687e-05 0.2074855
0.054578457 -0.06996653 0.082022965 0.026211252 0.038862668 0.12535158 0.093453 0.070110895
-0.07889452 0.027761761 -0.06374742 0.06838814 -0.103461854 0.08563377 0.026078312 -0.2165802
0.05458449 -0.13203725 0.081264794 -0.02817639 -0.05705329 0.16616577 -0.009278369 0.0123910485
-0.15446974 -0.030862384 -0.022543522 -0.11600255 -0.004948348 0.071971565 0.0010749631 0.15935688
0.12806083 -0.0022937367 0.20865557 0.04495601 0.015571511 0.03563723 0.06620707 -0.012631387
0.031374697 0.19405323 0.2698481 -0.13352297 -0.04345475 0.037033 0.13623519 0.09066635
-0.058260284 -0.07383797 -0.15354604 0.16834676 0.14291632 0.1706874 -0.15085976 -0.17719783
-0.008705651 -0.090387575 -0.05720906 -0.29264867 -0.16034025 0.028284494 -0.06848441 0.006297624
-0.10293589 0.08063993 0.06255226 0.23282488 -0.041709 -0.0444457 -0.19517377 0.05969146
0.058185156 -0.07827144 -0.08849723 0.009693593 0.049294896 -0.0056347544 0.20895307 0.035566013
0.090122506 -0.05007131 0.08787017 0.16075309 -0.07085333 -0.06519995 -0.06511712 0.1530029
-0.14648978 0.104641326 0.24475113 -0.0020925638 0.16880561 0.1064021 0.020267269 -0.08049733
0.012934825 0.06038638 -0.069975615 0.0029127942 -0.103600286 0.09855265 -0.115737915 -0.019820377
-0.03347573 0.13141157 -0.00827374 -0.09319926 0.12411533 -0.075135946 -0.1834957 -0.0137997735

gnn_list.0.proj_edges.net_usu.0.bias f4 [128]
00000000: b8a4 87bd 89c3 80bc 742b e93b 3dda 9c3d
00000010: 91ff 4e3d caf4 dcbc 4f37 823c f4d7 d1bc
00000020: 0f36 863c 1eef de3b d80c 1dbd 83fc 983c
00000030: d049 e9bc 03e8 afbc 884c 81bd 0a97 463d
00000040: 4b63 553d e069 94bc 07ff 61bc da57 fd3c
00000050: d5d6 203a 2ca5 dcba 516e 303c ab17 a2bc
00000060: e5a6 223d cd11 643c 876a 37bc 5601 5e3d
00000070: 222e fdbb 58a1 6d3c 7ba4 243c 0517 19bc
00000080: 937c bfbc fd22 283c 3a3c f4bc ce9f 4c3d
00000090: aad8 063b 3213 a03c 3741 d03c 56a0 d7b8
000000a0: 5e8f 89bd 4286 48bb bb24 5d3c c0b6 d6bc
000000b0: 6a56 bcbc 6ba0 673c bcb2 593b adec 41bd
000000c0: c39e e1bc 8ffb a23c 837f 68bc 7af9 4dbd
000000d0: d466 443a 8296 193c 6eca 5d3d 9a54 b4bb
000000e0: 9864 423d 2749 a2bc 2e97 903c 12e7 6ebc
000000f0: 84a4 953b 3034 6fbd 9349 253d 638e 983d
00000100: 6986 043c c51d 613a f782 0b3d e608 233d
00000110: 130d 993d 77da 5d3c b288 433d d951 31bc
00000120: 61c4 f7bc 0749 8f3d e425 3e3d c26b 4cbd
00000130: 969d 563d d9ba 1e3d c21c 30bd 5b4c 1ebd
00000140: df4f ddbb 59b3 5b3d 4159 71bc 1acb 153d
00000150: ff00 56bb 9180 54bc 10ba 2abc 3582 1dbd
00000160: 87d9 29bd 57c1 093d dc02 983c f425 703d
00000170: 6026 e3bc 8f5e 253d 2bd6 5f3b c2a0 9c3d
00000180: 36d9 f5bc 0748 02ba 1a2c 16bd 1a64 7abc
00000190: f880 cabb 456e e23c 0eda a2bc 60e2 7fbc
000001a0: 8b63 fc3c 7a5e a2bc d4af a03c d3a1 153d
000001b0: 076a 1c3c 21db 81bd 43c0 253a ce68 a73c
000001c0: 61b4 1fbd 0ec5 053d e502 613d 9420 c2bc
000001d0: 8c49 8e3c eba2 e5bc 963b 453d 022a e3ba
000001e0: b942 013c c667 433d e19b d23b bd4e 9e3c
000001f0: 4360 0dbd db7a 8d3b 939c 5bb8 f893 963d
-0.066232145 -0.015718238 0.0071157757 0.07658813 0.050536696 -0.026972193 0.015895514 -0.02561567
0.016383199 0.0068034073 -0.038342327 0.018675094 -0.02847758 -0.021472936 -0.06313425 0.048483886
0.052096646 -0.018116891 -0.013793713 0.03092568 0.0006135528 -0.0016833893 0.010768489 -0.019786676
0.039709944 0.01392026 -0.011194832 0.054200493 -0.0077264467 0.014503799 0.010048981 -0.009343867
-0.023374831 0.010262248 -0.029813875 0.04995709 0.002057592 0.019540403 0.025421722 -0.00010281864
-0.06716798 -0.0030597602 0.013497527 -0.026210189 -0.022990424 0.014137368 0.0033218106 -0.047344852
-0.027541524 0.019895343 -0.014190557 -0.050286748 0.0007492129 0.009374263 0.05414813 -0.0055032494
0.047459215 -0.019810272 0.017650213 -0.014581459 0.004566731 -0.05839938 0.04035337 0.07449033
0.0080886865 0.0008587505 0.034060445 0.039803408 0.07473197 0.013540856 0.047737785 -0.010822737
-0.030245008 0.06996351 0.046422854 -0.049907453 0.05239638 0.03875241 -0.042996176 -0.038647037
-0.006753906 0.053637836 -0.014730752 0.036570646 -0.0032654402 -0.012970106 -0.010420337 -0.038454253
-0.041467216 0.03363165 0.018556051 0.058629945 -0.02772826 0.04037338 0.0034154754 0.076478496
-0.0300108 -0.00049698394 -0.036663152 -0.015282655 -0.006179925 0.027640471 -0.019879367 -0.015617937
0.030809185 -0.01982044 0.019615091 0.03653128 0.009546763 -0.06340624 0.00063229 0.020435717
-0.038990382 0.03265863 0.0549344 -0.023697175 0.017369054 -0.028031787 0.04815253 -0.0017331245
0.007889443 0.047706388 0.0064272736 0.019324655 -0.03451563 0.004317624 -5.235949e-05 0.073524415

gnn_list.0.proj_edges.net_usu.3.weight f4 [128]
00000000: 6b55 753f 1e66 7e3f c783 743f 4f9e 7a3f
00000010: 20e8 6e3f 0f9a 763f d0cd 823f 8491 783f
00000020: b105 803f f9c9 823f e687 7b3f eb31 7e3f
00000030: 0478 783f 0148 6b3f 7ee3 803f bc18 733f
00000040: cb22 643f 2da4 6a3f 610b 693f fa5d 843f
00000050: 2bcc 723f 0b1b 7e3f a87f 733f f96a 7c3f
00000060: 4c3e 793f 7e5a 813f 8d96 723f d8a3 833f
00000070: a341 703f 3535 753f dddd 7d3f 4c21 743f
00000080: 7045 7e3f 73f8 7b3f 9582 733f 1c1f 743f
00000090: a185 7b3f c770 7a3f e07f 7e3f b8d3 753f
000000a0: a541 723f ef62 773f 3e6b 823f 903c 6b3f
000000b0: fb26 833f b29f 783f 0dad 6d3f 84c2 783f
000000c0: 01c8 7c3f c120 743f a937 833f f979 743f
000000d0: 153e 873f 3081 7c3f ae25 813f 0c37 743f
000000e0: 86e1 823f 2d4e 803f f4e5 843f 05b4 853f
000000f0: 9485 793f d531 783f 35ac 7a3f a407 7f3f
00000100: 7b51 6c3f be2d 793f 8354 7b3f 9669 713f
00000110: 6db5 833f a035 6b3f 11e3 733f 6651 813f
00000120: fe26 7b3f ad2e 8a3f c652 833f f870 733f
00000130: 2e0f 833f e3f8 753f 503e 783f 441b 803f
00000140: 5fae 813f 0e6b 753f 8f06 7b3f 3c7b 703f
00000150: f56b 803f 5c3d 823f 61a1 7f3f 051a 773f
00000160: 5a9e 803f 47c5 803f 2c61 793f 4f65 823f
00000170: 0283 753f 2097 803f facd 793f e853 853f
00000180: 0437 783f ddc9 773f c6dc 803f 3649 7b3f
00000190: 6303 833f 89eb 753f 6742 803f a857 813f
000001a0: 9d2a 813f 2e54 7e3f 72a1 783f 4d18 7d3f
000001b0: 3b2a 7d3f 42ae 783f 2d35 683f f363 843f
000001c0: eb66 693f 4192 733f 0abe 763f 5b66 7a3f
000001d0: 5d5d 883f 60a3 783f 7abc 793f 258e 6c3f
000001e0: ef83 7d3f 45f7 633f eb58 833f e48a 813f
000001f0: 26d2 703f b0f6 7a3f c5d2 6d3f 96a9 803f
0.9583346 0.9937457 0.95513576 0.9789781 0.93322945 0.96328825 1.0219059 0.9709704
1.0001737 1.0217887 0.9825424 0.9929492 0.9705813 0.91906744 1.0069425 0.94959617
0.8911559 0.9165676 0.9103299 1.0341179 0.94842786 0.99260014 0.9511666 0.9860073
0.9736068 1.0105741 0.9476097 1.0284376 0.93850154 0.9578431 0.9916666 0.95363307
0.99324703 0.9842598 0.9512113 0.9535997 0.98250777 0.97828335 0.9941387 0.9602618
0.94631416 0.96635336 1.0188978 0.91889286 1.0246271 0.97118676 0.9284218 0.9717181
0.9874268 0.9536248 1.0251361 0.95498616 1.0565821 0.98634624 1.0089624 0.95396495
1.0225074 1.0023857 1.0382676 1.0445563 0.9746945 0.9695104 0.9791902 0.99621034
0.9231183 0.9733542 0.9817583 0.94301736 1.0289742 0.918787 0.9526835 1.0102966
0.9810637 1.0795494 1.0259635 0.9509425 1.0239007 0.96082896 0.9697008 1.0008321
1.0131339 0.9586648 0.9805688 0.9393804 1.0032946 1.0174975 0.9985562 0.9652408
1.0048325 1.0060204 0.974139 1.0187167 0.9590303 1.004612 0.9757992 1.0416231
0.9695895 0.96792394 1.0067375 0.98158586 1.0235409 0.96062523 1.0020264 1.0104876
1.009113 0.993472 0.97121346 0.98865205 0.98892564 0.97140896 0.9070614 1.0343002
0.91172665 0.9514504 0.96383727 0.9781243 1.0653492 0.9712429 0.9755322 0.92404395
0.9902944 0.8904918 1.0261511 1.0120511 0.9407066 0.98032665 0.92899734 1.0051754

gnn_list.0.proj_edges.net_usu.3.bias f4 [128]
00000000: 23da ad3a 80d4 04bd 0242 793c 774e 083d
00000010: 6d2f 9c3d 6911 61bd 9189 40bd b9b3 efbb
00000020: 3b32 443b e078 773a 4c76 f4bc ec22 07bc
00000030: caf7 f83c bb88 5c3c 6497 8cbd c42d d93d
00000040: 33ec b13d c84f dd3c e56c de3c 2152 28bd
00000050: 589d 223d 0ebb 953c 1eb2 64bc 07d7 1a3d
00000060: 0a15 603d 86db 353d 53be 183c 6442 013c
00000070: 1a1b 97ba dd9b 223d 52ad 1139 a0c2 713c
00000080: ba0a 3abd 8144 103c 50a5 bbbb 626e 26ba
00000090: ffc9 1d3d 669d 293d 7116 043d 52a2 b53c
000000a0: fcf8 6bbb 2dc4 303b 1c2c 89bc 310b 1f3d
000000b0: d215 9bbd 7d12 a43c d384 29bb a649 87bc
000000c0: fe81 4c3b 11c5 5e3d c5f2 d9bc 85ea 05bd
000000d0: 29b7 25bd 3e75 e5bc fc01 0b3d 8c29 ba3c
000000e0: cea7 4f3c 21a1 f1bc 6e78 eb3c 6e92 71bd
000000f0: b408 09bd 0517 0f3c d171 08bd 6aeb 123c
00000100: 6d9e a8bb 8e87 60bb c038 583c 22b5 9e3d
00000110: 9119 9a3d a8c9 643d e430 4f3d ef32 afbc
00000120: 0572 2ebd 1bbc 1d3d b59d 673d 657c b13c
00000130: 4e3a 833c a017 673d f4a3 31ba bfca d4bc
00000140: f062 963c 5e50 7d3d 93c2 e83b fb41 993c
00000150: f7eb e63c 94cf 4fbd bce4 01bd 59ed 563c
00000160: 0bc6 1dbd 2135 093c 6c5b 6fbc 268b f73c
00000170: 79d8 093d 4b9f 8c3d d171 febc 73ff 413d
00000180: b562 2138 2d4e 8e3c 173d 8bbd 69e3 e43b
00000190: b719 ee3a ad65 003d c104 adbc 9b2d 46bd
000001a0: fe7b 2b3d 189e 0abc 9d4c 4abc 0216 543c
000001b0: 83de a83b 8a9d 80bc dc27 9d3d 1a84 093d
000001c0: 51ab 4dbd 30bf fabc 2921 563d f68d 32bd
000001d0: 7f1f 53bc 6a36 9d3c b219 833d cb6d f5bc
000001e0: 2d0d 1d3d 5ef1 d13d d5e4 69bb 3fd6 0a3c
000001f0: 09f0 81bc e2a5 33bb 6c25 513c e26d 453d
0.0013263862 -0.03242922 0.015213491 0.033277955 0.07626233 -0.054948244 -0.047006194 -0.007315126
0.0029937166 0.0009440314 -0.029841565 -0.008248072 0.030391593 0.013460333 -0.06864813 0.10604432
0.086876296 0.027015582 0.027151534 -0.04109395 0.039700836 0.018277671 -0.013958482 0.037802722
0.054707564 0.044398807 0.009322721 0.007889364 -0.0011528463 0.039699424 0.00013892844 0.014755875
-0.045420386 0.008805395 -0.005726494 -0.0006348846 0.038522717 0.041409872 0.032247964 0.022172127
-0.003600656 0.0026972399 -0.016744666 0.038829032 -0.07572521 0.020028347 -0.0025866523 -0.01651461
0.003120541 0.054387156 -0.02660502 -0.03269436 -0.04045788 -0.028010007 0.03393744 0.02272489
0.012674285 -0.029495778 0.028743949 -0.058977537 -0.033455566 0.008733516 -0.03331167 0.00896726
-0.005145839 -0.0034260484 0.013197124 0.07749392 0.07524408 0.055856377 0.050583735 -0.021386592
-0.042589206 0.03850947 0.056546886 0.021665761 0.016019013 0.056419015 -0.0006776445 -0.025975583
0.018357724 0.061844222 0.007103273 0.01870822 0.028188689 -0.05073507 -0.03171228 0.0131181115
-0.038518947 0.008374483 -0.014609199 0.030217718 0.03365371 0.0686632 -0.031060131 0.047362756
3.847732e-05 0.017371261 -0.06798761 0.006985117 0.0018165623 0.031346966 -0.02112043 -0.048383337
0.041866295 -0.008460544 -0.012347368 0.0129447 0.0051534786 -0.01570012 0.07673618 0.033573247
-0.05021221 -0.030608743 0.052277718 -0.043592416 -0.012885927 0.019190986 0.06401385 -0.02995958
0.038342644 0.10251115 -0.0035689373 0.008473932 -0.015861528 -0.0027412106 0.01276527 0.048200496

gnn_list.0.proj_edges.net_usu.4.weight f4 [64, 128]
00000000: d080 5abd 51e5 13b9 bad3 873e c68b 143d
00000010: 8d4d 093e d3d5 793d 1916 39be c7b0 123e
00000020: eb9f df3c 24c1 53be f1e9 dcbc 1204 afbd
00000030: fdaa 583c 5a11 513d f049 553d b088 ec3d
00000040: 8679 5a3d c0ca 3cbe 9237 aebd 6fe1 283e
00000050: a99b 88bd c55f edbd c292 5c3e 192f 0cbd
00000060: d04b c03d f6b2 1abe cea5 02be 0792 863d
00000070: f9f6 5ebc d6f2 b73c 9d55 72bd 3bbb 213d
00000080: fdcb 7bbd 523b 3a3e 345d 2fbe fdf5 3a3e
00000090: 87fc d23d 06a4 36bb 5bc5 a33d 0bed 2bbc
000000a0: f310 12bc 0564 ee3d f7bc 4e3e 21ba a93d
000000b0: f36b a73c d5d1 063e 7fe2 643e b285 9fbd
000000c0: 3612 d3bd b3e3 16be 0a9b 093d 6e78 193e
000000d0: 53b5 7c3c aa70 c1bc 777f bbbd c9fa cb3c
000000e0: 2693 12be dbb8 183e 9e99 c33e 4d88 b6bd
000000f0: bc48 36be 85de 633d e2b0 3a3d 70b1 973d
00000100: ec55 40be 17e9 16bc 16e3 0c3e 7077 943e
00000110: d028 1cbd c8bb 703d 0b21 29bd fae8 9abc
00000120: 344a 7f3c 6a6e 65bd 9b7d 0dbe 9322 4abd
00000130: 6aff 8ebc fcf6 b3bd e8b2 0b3c f832 5fbd
00000140: 4228 213c 95f8 123c 75af 373e cd87 2dbc
00000150: e42d e93d b682 ddbd 918d 1f3b af63 b1bd
00000160: 98f9 20be 1dbf ed3d dc05 2dbc b867 fcbd
00000170: 2023 e53d 424c 44be 1c29 b33c 9083 383e
00000180: a81e aa3d c952 56bd a3ca 3fbd c03e 803c
00000190: 4b1e 523c e422 a33b 747f 4cbd b531 ec3d
000001a0: e490 5b3d 5906 5f3b c3b8 223e e691 8fbd
000001b0: 1486 2fbd 4e1b 03be 780c 09be 1bed 0e3e
000001c0: 8fe0 223e 65f1 233e 6694 5d3e 845a 473d
000001d0: a4df 1ebe be62 19be 5322 11be 0cef 513d
000001e0: 9ee0 053c 4c08 b0bd 60ee ae3d 1a5b e3bd
000001f0: 8548 aebc a432 33be 7c6d 413e 6780 2ebe
00000200: fb9e e63d 9a25 eebc 8ec5 0cbe 9521 823c
00000210: 839f 2b3d 7c3f c2bc d6c7 013d 0f22 89bd
00000220: 890a 17be fddb 273e 227e 993e 135a 6bbd
00000230: 509c f3bb 2d12 153c 5701 cc3d 49bf c13d
00000240: e923 acbd e553 86bd a4c0 15be 15e3 68bd
00000250: 3875 f23c 9ab7 c93c 2e02 4bbc 205a e83d
00000260: 365d 26be 873b 653e 9a33 d43d e83a f6bd
00000270: bcf1 ce3d 7879 7a3d 032e a2be 6315 073e
00000280: 0805 1b3e 18cb a23d 00a4 9c3d 614c 3a3e
00000290: bc89 063e 3df7 033d 4b5a ae3c 2af9 a53d
000002a0: 10c6 953a 9b79 c4bb acac 1cb9 0653 06ba
000002b0: eaad 683e 4791 8fbc 6d27 683e 7793 e63d
000002c0: d9b6 f13d 556d 753c 407d 3bbd 155d 763c
000002d0: 9141 64bd ee3c 39bd 0f18 353d 67ff 01be
000002e0: e1ff d5bd 49b0 493e 5d9a f83c fcf3 743d
000002f0: fece 373e d0ca 3ebd ab67 fd3d 063a 8dbd
00000300: acb5 79bd 2470 1ebe 7a02 8abe 3cd3 393a
00000310: e9d7 b6bc 31ca 81bb d046 f03d 57f4 323c
00000320: 0ef2 bb3d 95b0 a3bd ea44 eabd b90b 763e
00000330: 0ce0 8d3d c704 65bd cd30 a7bc 74b4 e23d
00000340: 9e36 e2bd c8d2 0ebe 2e3e e83d 71b4 e33d
00000350: 913c babc 4da0 5d3d 34f7 dbbd c997 4e3e
00000360: 9c30 a63d 91b1 f63d 9676 183d 188e 02bd
00000370: 3071 573d 4c1f 2c3d f23e 1e3e 7cee 3d3d
00000380: d60d 0bbd 20cf a6bd 7811 3a3c b7b6 d5bd
00000390: 00f6 143e 706d 3bbe f3c9 f43d e46a 1cbd
000003a0: 76b3 1bbd cabe 353c eb13 243e c82e 0cbe
000003b0: 5510 ebbc 0845 993d 692b bfbc 3461 97be
000003c0: b780 68be 375c 5bbd ecdb 26be 0d9b cebd
000003d0: b73e b4bb 1ed6 1abe 43a8 d23d 1fac b33a
000003e0: f15c 173e a75d 27bd e0ae 38be 7776 6abd
000003f0: 9702 ba3d a7ba 8dbc 7f1b 03bd 65cd 903e
-0.0533455 -0.0001410444 0.26528722 0.03626611 0.1340849 0.060994934 -0.18074836 0.14325248
0.027297935 -0.20679146 -0.02696702 -0.08545698 0.0132243605 0.05104194 0.052072465 0.115495086
0.05333855 -0.18436718 -0.08506693 0.16492246 -0.06670315 -0.11590532 0.21540359 -0.034224603
0.0938946 -0.1510733 -0.12758562 0.06570821 -0.013608688 0.02245466 -0.05916368 0.039485198
-0.061473835 0.18186691 -0.17125398 0.182579 0.10302072 -0.0027868762 0.07996627 -0.010493527
-0.008915174 0.11640171 0.20189272 0.082874544 0.020437216 0.13165982 0.22352026 -0.07789172
-0.10306208 -0.14735298 0.033595122 0.14987347 0.01542409 -0.023613293 -0.09155171 0.024899857
-0.14313945 0.14914267 0.38203138 -0.08912716 -0.17801183 0.055632133 0.045578845 0.074068904
-0.18782777 -0.009210846 0.13758501 0.28997374 -0.03812486 0.058772832 -0.041291278 -0.01890992
0.015581656 -0.056013502 -0.13817446 -0.04934938 -0.017455775 -0.08787343 0.008526541 -0.054491967
0.009836258 0.008970399 0.17938025 -0.010591459 0.11385706 -0.10815947 0.0024345855 -0.08661591
-0.15720212 0.116087176 -0.010560479 -0.1232447 0.1118834 -0.19169715 0.021870188 0.18018937
0.083066285 -0.052325044 -0.04682411 0.015654922 0.012824605 0.0049785245 -0.049926236 0.11532918
0.053604975 0.0034030883 0.15890794 -0.0701025 -0.042852476 -0.12803385 -0.13383663 0.13957636
0.15905975 0.16010053 0.21638641 0.048670307 -0.15515 -0.14979073 -0.1417325 0.051253363
0.008171229 -0.085953325 0.0854156 -0.111013606 -0.021274814 -0.17499787 0.18889421 -0.17041169
0.11260792 -0.029070664 -0.13747236 0.015885154 0.04190017 -0.023711912 0.03168472 -0.06695949
-0.14750113 0.16392513 0.29979044 -0.05745895 -0.0074344054 0.009098572 0.09961193 0.09460313
-0.08405287 -0.0655897 -0.14624268 -0.056857187 0.02959691 0.02462368 -0.012390656 0.11345315
-0.16246495 0.22385989 0.10361405 -0.12022954 0.10104701 0.061150998 -0.3167573 0.13191752
0.15138638 0.07948893 0.07648468 0.18193199 0.13138479 0.032218207 0.02128329 0.08104165
0.0011426825 -0.005995942 -0.00014941645 -0.0005124066 0.22722593 -0.017525328 0.2267129 0.112585954
0.118024535 0.01497968 -0.045773745 0.015036841 -0.05572659 -0.045224123 0.044212397 -0.12695085
-0.10449196 0.19696154 0.030347044 0.059802994 0.17950055 -0.046580136 0.12373289 -0.06895833
-0.06096427 -0.15472466 -0.26955014 0.00070886663 -0.02231975 -0.0039608707 0.117322564 0.010922513
0.09177028 -0.07992665 -0.114389256 0.2402791 0.06927499 -0.05591276 -0.020409012 0.11069575
-0.11045574 -0.13947594 0.11339985 0.11118401 -0.022733958 0.054107953 -0.1074051 0.20175089
0.0811474 0.12045587 0.037222467 -0.031873792 0.05259818 0.042022035 0.15453699 0.046370015
-0.03394874 -0.08144975 0.011356704 -0.10435241 0.14546967 -0.18303466 0.11952581 -0.038187876
-0.038012944 0.011092851 0.16023223 -0.1368972 -0.028694311 0.0748387 -0.02333613 -0.29566348
-0.22705351 -0.05355474 -0.16294831 -0.10088167 -0.0055006403 -0.15120742 0.102859996 0.0013707912
0.14781548 -0.0408608 -0.1803546 -0.057241883 0.09082525 -0.017300917 -0.032008644 0.28281704

gnn_list.0.proj_edges.net_usu.4.bias f4 [64]
00000000: 6d59 cc3c 1052 88bd 1f7e 9bbd 3b97 fdbc
00000010: a8ec 3abc 683b ab3d 3e67 4f3d 431a 37bc
00000020: 4485 aabd f6cc d1bb 2d37 89bd e1a3 453c
00000030: c1c5 77bc 25c3 8b3c 9c1b d93b 61a9 3f3c
00000040: 088a 1fbd 8abd 423c 22dd 853c 5383 2f3c
00000050: 14c7 be3c 9b8d 20bd e3ee f13c a935 04bd
00000060: 1818 553a f2db 48bc d6d0 7dbd d42b b4bb
00000070: 1ff9 58bb ba7d 26bd f08a 95bd 1cb8 143d
00000080: b3ac 263d 08ad 8e3c e032 32bd 7cc8 893c
00000090: 491f 4e3c d1d7 4ebd e8dc 12bd 365f 1b3d
000000a0: 6c51 a73b 2a1b a2b9 92f6 80bd 3be8 183d
000000b0: 58d5 95bc 1d96 bcbc ee37 8ebd e183 83bd
000000c0: e0c6 1ebb 38b8 013b 1414 8f3b a8e8 85bd
000000d0: 310c 8abd 59d9 f83c 08ea 693a 059e f53c
000000e0: 8114 293d 0c3e 363c 6d2a c53b 324f 85bd
000000f0: d873 013d 29ec d2ba 2091 25bc 4c95 06bc
0.024944985 -0.06656277 -0.07592415 -0.030955901 -0.011408962 0.0836094 0.05063557 -0.011175695
-0.083262 -0.006402607 -0.06699977 0.012062998 -0.015122832 0.017060826 0.0066256057 0.011698098
-0.038949996 0.01188601 0.016340796 0.0107124625 0.023288287 -0.039197545 0.029532855 -0.032277737
0.00081288954 -0.01225947 -0.06196674 -0.005498389 -0.0033107472 -0.040647246 -0.07301891 0.036308393
0.040692043 0.017416492 -0.04350555 0.016819231 0.012580701 -0.050498787 -0.035855204 0.037932597
0.005106142 -0.00030919287 -0.062970296 0.037330847 -0.018290207 -0.023020798 -0.069442615 -0.06421638
-0.0024227425 0.001979364 0.004366407 -0.06538516 -0.067406066 0.030377077 0.0008923118 0.029982576
0.04127932 0.011123192 0.0060170204 -0.06509246 0.031604618 -0.001609211 -0.010105401 -0.008214306
