model-weights/tfinance.pth (torch, 183147 bytes, 28 tensors)

gnn_list.0.proj_edges._E.0.weight f4 [128, 128]
-0.06384929 0.05219134 0.024298001 -0.07805797 -0.24522392 -0.10778584 -0.23313205 0.11327573
0.23366532 -0.09113126 0.084156506 -0.023093773 -0.02271783 0.115534104 0.1308834 0.03866863
-0.26461467 0.19231112 -0.0031258324 -0.018086808 -0.18912478 -0.03171844 -0.33735102 0.08635098
0.109088816 -0.10114393 0.0034319202 0.035488326 -0.12307409 -0.017582493 -0.17032371 0.068079375
0.086255506 0.1924234 -0.055623647 -0.0012818609 -0.025993288 -0.00071249023 -0.0615837 0.1971298
-0.11746307 -0.078735456 -0.041561957 0.17767164 0.14591071 0.10841946 -0.046832293 0.10815469
0.0066664447 0.028528787 -0.026926823 -0.119627684 0.14515655 -0.0036841324 -0.021535415 -0.08547157
0.11281524 -0.07686198 -0.10977819 -0.09097706 -0.059020024 0.17297594 -0.19593792 0.10669687
-0.013436431 -0.06440249 0.05291123 0.058641776 -0.047737952 -0.17847562 -0.084188305 -0.04332095
-0.037644465 -0.03844449 0.0451308 0.05042021 0.008237596 0.20080407 -0.063147135 0.22233713
-0.17379288 0.2328395 -0.117088564 0.033995084 -0.025571795 0.15121058 -0.0021621683 0.012681536
0.18679895 -0.25123116 -0.19285963 -0.030680982 -0.06400004 -0.052141678 -0.10231001 0.037093896
0.048361313 0.09590117 0.060391758 0.021402903 0.15076496 0.13883005 -0.08661007 -0.03731493
-0.04885908 0.028937088 -0.031867296 0.24569088 -0.028368814 -0.04561067 -0.16079402 0.060243156
-0.0010043127 0.012035223 -0.061224077 -0.004933707 0.045217197 -0.19554392 -0.019477306 -0.09202631
0.27249765 -0.08743902 -0.074983366 -0.002502196 0.13457589 0.07196244 -0.25009772 -0.04476854
0.2927352 -0.08464854 -0.11027939 0.2076734 -0.0737315 -0.03206305 0.0048107295 0.013112873
0.0042236024 -0.11047611 0.061949745 0.14802396 0.05587567 0.08103599 0.04467394 0.05151925
-0.22914086 -0.0549473 0.15294164 -0.0910987 0.11478701 0.011017263 -0.022163685 0.105523616
-0.22726841 -0.058973633 0.17730905 -0.12512307 -0.14675401 0.008723852 0.040583305 0.16311732
0.09494888 -0.25578868 -0.03384336 -0.039485365 0.12683071 0.005483076 -0.1682373 -0.23232596
0.25311685 -0.07586855 -0.08581768 0.14811093 -0.060883947 0.035484612 -0.086109266 -0.14467874
-0.1492501 -0.008841073 -0.23594455 0.099171884 -0.1673528 0.17674138 -0.011673072 -0.09362395
0.0805904 -0.079357505 0.044148486 0.031278975 0.03265742 -0.083742015 0.08623794 -0.013330987
0.11334162 0.0051678726 -0.00501896 0.006198073 -0.018800013 0.21626522 -0.020537708 -0.01003334
0.1047947 -0.012893816 0.10810747 0.14801623 0.052583355 -0.109460175 0.012933816 0.049812634
-0.035296973 -0.04711982 -0.01887434 0.2008268 0.05273546 0.0338891 -0.01623185 -0.079113044
-0.10074171 0.08402837 0.2224939 0.12118817 0.03184541 -0.0064041503 -0.1088008 0.046914216
-0.10821664 -0.04383403 0.0044130506 0.1252006 0.00015129715 0.093501486 0.011438699 -0.1595152
0.12336241 0.06709444 -0.031203559 -0.13162181 0.14475882 0.06428921 0.07226779 -0.042948514
-0.11294234 -0.024368225 0.0074000424 0.13346495 0.008713168 0.025584545 -0.09925139 0.14389393
0.008160623 0.03455412 -0.030422116 -0.052547757 0.017814236 0.12601729 -0.009924199 0.0019330696
00000000: 6bc3 82bd 96c6 553d 9a0c c73c dbdc 9fbd
00000010: fb1b 7bbe d3be dcbd 2bba 6ebe 1bfd e73d
00000020: f645 6f3e 07a3 babd 3f5a ac3d 272f bdbc
00000030: be1a babc 259d ec3d 4c06 063e ff62 1e3d
00000040: 937b 87be 35ed 443e c4da 4cbb c92a 94bc
00000050: eda9 41be 32eb 01bd 46b9 acbe c8d8 b03d
00000060: f569 df3d 8c24 cfbd 11ea 603b 355c 113d
00000070: 450e fcbd 2909 90bc 5769 2ebe 336d 8b3d
00000080: baa6 b03d a40a 453e 9fd5 63bd 1d04 a8ba
00000090: e0ef d4bc 69c6 3aba 313f 7cbd 65dc 493e
000000a0: 7a90 f0bd 0e40 a1bd df3c 2abd 8eef 353e
000000b0: 9e69 153e 060b de3d 38d3 3fbd 3580 dd3d
000000c0: 3172 da3b 34b5 e93c a495 dcbc 5cff f4bd
000000d0: eba3 143e 7c71 71bb 0a6b b0bc b80b afbd
000000e0: ad0b e73d d069 9dbd 63d3 e0bd 2e52 babd
000000f0: fbbe 71bd 9b20 313e f3a3 48be e383 da3d
00000100: 7a24 5cbc 74e5 83bd 72b9 583d 5c32 703d
00000110: df88 43bd 50c2 36be eb6a acbd 4f71 31bd
00000120: 1531 1abd f877 1dbd 13db 383d 6c85 4e3d
00000130: fbf6 063c 959f 4d3e 4953 81bd 58ac 633e
00000140: c3f6 31be 7a6d 6e3e 21cc efbd 6e3e 0b3d
00000150: f17b d1bc f2d6 1a3e 2ab3 0dbb 38c6 4f3c
00000160: 3948 3f3e 5fa1 80be ff7c 45be af56 fbbc
00000170: 7412 83bd 8392 55bd e987 d1bd c5ef 173d
00000180: 8316 463d d567 c43d 595d 773d 2455 af3c
00000190: 2162 1a3e 7729 0e3e 9f60 b1bd 8ad7 18bd
000001a0: 7520 48bd 790d ed3c 4887 02bd 6496 7b3e
000001b0: b765 e8bc 41d2 3abd 30a7 24be 87c1 763d
000001c0: 24a3 83ba 622f 453c 19c6 7abd efaa a1bb
000001d0: ab35 393d aa3c 48be df8e 9fbc 4a78 bcbd
000001e0: d084 8b3e 3b13 b3bd e190 99bd e2fb 23bb
000001f0: 43ce 093e 0b61 933d cf0c 80be 375f 37bd
00000200: 63e1 953e 375c adbd 29da e1bd 56a8 543e
00000210: 8a00 97bd 8b54 03bd 53a3 9d3b 60d7 563c
00000220: 2566 8a3b 4c41 e2bd 04bf 7d3d 9893 173e
00000230: e3dd 643d 32f6 a53d 05fc 363d d905 533d
00000240: e7a3 6abe 6c10 61bd bc9c 1c3e f591 babd
00000250: 7415 eb3d c081 343c 9e90 b5bc c41c d83d
00000260: 0db9 68be 568e 71bd 8190 353e 4320 00be
00000270: af46 16be 7dee 0e3c ae3a 263d 3a08 273e
00000280: 8f74 c23d bcf6 82be 569f 0abd 68bb 21bd
00000290: e9df 013e 60ab b33b 6646 2cbe dbe6 6dbe
000002a0: 8898 813e f860 9bbd 2ec1 afbd 64aa 173e
000002b0: 7261 79bd 5058 113d 0e5a b0bd aa26 14be
000002c0: 05d5 18be 26da 10bc 739b 71be a11a cb3d
000002d0: 885e 2bbe b1fb 343e 6a40 3fbc eabd bfbd
000002e0: 940c a53d 3086 a2bd 0bd5 343d 621e 003d
000002f0: c9c3 053d ef80 abbd 849d b03d 366a 5abc
00000300: a71f e83d 4257 a93b 1776 a4bb 3419 cb3b
00000310: 7c02 9abc a174 5d3e b23e a8bc e162 24bc
00000320: 9b9e d63d 9640 53bc 7367 dd3d 9191 173e
00000330: a561 573d a82c e0bd 5be8 533c 5508 4c3d
00000340: 8f93 10bd b600 41bd 5c9e 9abc 8aa5 4d3e
00000350: 2301 583d 4ccf 0a3d a8f8 84bc 0506 a2bd
00000360: ab51 cebd 1117 ac3d 71d5 633e 8131 f83d
00000370: 5570 023d e8d9 d1bb f4d2 debd 1f29 403d
00000380: b0a0 ddbd 508b 33bd 5a9b 903b 9634 003e
00000390: 85a5 1e39 b57d bf3d 6269 3b3c f457 23be
000003a0: 6ea5 fc3d cf68 893d 9b9e ffbc dec7 06be
000003b0: a83b 143e 10aa 833d 2301 943d c8ea 2fbd
000003c0: 504e e7bd df9f c7bc 0e7c f23b 09ab 083e
000003d0: adc1 0e3c ae96 d13c 5044 cbbd ee58 133e
000003e0: 22b4 053c 9f88 0d3d cd37 f9bc 513c 57bd
000003f0: 29ef 913c ad0a 013e 1c99 22bc 0d5f fd3a

gnn_list.0.proj_edges._E.0.bias f4 [128]
0.07061831 0.02614425 0.07011395 0.0411435 -0.015951093 -0.03006937 -0.047837712 -0.047827553
0.036133118 0.053413536 0.0020736167 -0.02211411 -0.04926006 0.020454438 -0.110931516 -0.12279481
0.036318287 0.0006380464 -0.035412487 -0.0066386973 -0.03390279 -0.026916707 0.065138616 0.033838913
0.03362671 -0.015109807 0.019836612 0.02603401 -0.03486419 0.029895859 0.044913556 -0.13702814
-0.011564782 0.032965843 -0.0024832983 -0.039528213 0.034498557 0.03388581 -0.011604545 0.04454863
0.03703577 -0.009845869 0.15133098 -0.016939418 -0.09504645 -0.0698203 -0.10831495 -0.10526092
-0.079901755 -0.043976035 -0.15874177 -0.11695259 0.023749575 -0.09141327 -0.019333594 0.009491735
-0.10093653 -0.12926641 0.003272708 0.048991535 0.11173767 -0.07980733 0.029438244 0.086783715
0.015168835 0.044674933 0.122373484 0.006992604 -0.042625446 0.082560234 -0.05961173 -0.011001611
0.021409195 0.06291247 0.013462175 -0.100414105 0.049750786 -0.025808172 -0.09991065 -0.0781243
0.08948251 0.030548396 0.06836731 0.019101545 -0.020901203 0.015166333 -0.016761677 -0.07093219
-0.08889817 0.01827434 0.14825098 0.01527835 0.047499854 -0.057945568 -0.05383172 0.034754507
0.056292005 0.038555738 0.12314744 -0.06737625 0.08169822 -0.041097697 0.06704984 -0.10777468
-0.028523574 -0.07529719 0.01544738 -0.068746515 -0.041029204 0.1424956 -0.011006263 0.068317465
0.017598523 -0.041380335 -0.004530864 0.08614925 0.04226342 0.09284052 0.03559818 -0.0037777366
-0.111915365 -0.06297928 0.052129023 0.04095257 -0.030762626 0.061044652 0.013911663 0.021143615
00000000: 55a0 903d 772c d63c e797 8f3d 1686 283d
00000010: deab 82bc 0a54 f6bc 7af1 43bd d3e6 43bd
00000020: 5200 143d 27c8 5a3d 84e5 073b a628 b5bc
00000030: ebc4 49bd 1190 a73c 1030 e3bd d87b fbbd
00000040: 7cc2 143d 9242 273a af0c 11bd 6e89 d9bb
00000050: a7dd 0abd 6d80 dcbc 6567 853d ac9a 0a3d
00000060: 29bc 093d 208f 77bc 6480 a23c 4745 d53c
00000070: c1cd 0ebd 29e8 f43c 47f7 373d 1b51 0cbe
00000080: 367a 3dbc 3107 073d d5be 22bb 56e8 21bd
00000090: 5c4e 0d3d d9cb 0a3d fd20 3ebc a078 363d
000000a0: d2b2 173d 9150 21bc 82f6 1a3e 89c4 8abc
000000b0: b7a7 c2bd f2fd 8ebd 3ad4 ddbd 0a93 d7bd
000000c0: 88a3 a3bd 3720 34bd 348d 22be d784 efbd
000000d0: 788e c23c e136 bbbd 7c61 9ebc 3983 1b3c
000000e0: d0b7 cebd 6a5e 04be ee7a 563b 59ab 483d
000000f0: b8d6 e43d 0772 a3bd 7928 f13c a9bb b13d
00000100: b586 783c 10fd 363d f39e fa3d 3722 e53b
00000110: 0598 2ebd 5715 a93d 6e2b 74bd 1a40 34bc
00000120: 5662 af3c 41d8 803d 7490 5c3c e9a5 cdbd
00000130: 7bc7 4b3d a96b d3bc f49d ccbd a2ff 9fbd
00000140: 9b42 b73d a140 fa3c 2904 8c3d d87a 9c3c
00000150: 0039 abbc 367c 783c c94f 89bc e544 91bd
00000160: 3e10 b6bd 12b4 953c 1bcf 173e 0b52 7a3c
00000170: 358f 423d 5558 6dbd a67e 5cbd be5a 0e3d
00000180: 7292 663d 9fec 1d3d ba34 fc3d 8ffc 89bd
00000190: 6551 a73d 0f56 28bd 6d51 893d f9b8 dcbd
000001a0: 45aa e9bc 6a35 9abd 0217 7d3c f9ca 8cbd
000001b0: 3d0e 28bd 5eea 113e 9d53 34bc 07ea 8b3d
000001c0: c72a 903c 6d7e 29bd a477 94bb 056f b03d
000001d0: 681c 2d3d 2c23 be3d 66cf 113d e793 77bb
000001e0: e233 e5bd 48fb 80bd 3e85 553d e2bd 273d
000001f0: e701 fcbc f509 7a3d beed 633c 6035 ad3c

gnn_list.0.proj_edges._E.3.weight f4 [128]
0.9897598 0.8610527 0.95831394 1.0804954 0.8937272 1.0334173 1.0409198 0.97720355
0.9919019 1.0436207 1.0797395 0.9166061 1.0781893 1.0024381 0.91871244 0.96187395
1.0282395 0.94443965 0.9703156 1.0037817 1.0958835 0.92608 1.0680587 1.0883633
0.91900134 1.0503762 1.0329587 1.0718594 0.9221504 1.0515174 1.0083963 0.97382104
1.0510927 1.0795239 1.0997312 0.9676813 1.0186834 0.89956135 0.98059773 1.1089704
1.0149124 1.0228007 1.0566559 1.0530093 0.93676275 0.97790724 0.9463083 0.96285874
1.0507795 0.9867839 1.0545828 0.9865328 1.0395976 0.9610385 0.94738346 1.0222336
0.99389195 0.94536424 0.97959125 1.0625621 1.1146375 0.93539965 1.0698019 1.1455836
1.0377525 1.0400926 0.9897371 1.0467027 1.0183463 1.087002 1.0265635 0.9191142
0.95424455 1.0081707 1.0577488 0.92425793 1.0833017 0.9332161 0.9930954 1.0268861
0.96564656 1.0562605 1.0207783 0.94481313 0.94740564 1.030798 0.99248713 0.9883778
1.0176969 1.0653601 0.9459056 0.96634173 1.0725201 0.9071224 1.0250261 1.0525798
0.99574834 1.0592654 0.96558136 0.9320242 1.0261576 0.9876577 1.0524926 0.92995715
1.0222075 1.0387632 0.9886303 0.98448426 1.0992773 1.0470929 0.93481135 1.0411524
0.98808503 1.0602325 0.9819438 1.0101703 0.9193583 1.090008 0.9358913 1.0401266
1.0174699 0.98996633 1.072231 1.0486753 1.0505396 1.0513201 1.0820112 0.96097815
00000000: e660 7d3f f36d 5c3f 1054 753f ac4d 8a3f
00000010: 4ecb 643f 0547 843f dc3c 853f 032a 7a3f
00000020: 48ed 7d3f 5d95 853f e734 8a3f b3a6 6a3f
00000030: 1b02 8a3f e44f 803f bd30 6b3f 5f3d 763f
00000040: 5a9d 833f ccc6 713f 9a66 783f eb7b 803f
00000050: e945 8c3f 9413 6d3f 26b6 883f 7d4f 8b3f
00000060: ac43 6b3f ba72 863f fe37 843f b032 893f
00000070: 0c12 6c3f 1f98 863f 2113 813f 564c 793f
00000080: 358a 863f d72d 8a3f fec3 8c3f f6b9 773f
00000090: 3864 823f a749 663f 7408 7b3f bef2 8d3f
000000a0: a6e8 813f 22eb 823f 8040 873f 02c9 863f
000000b0: afcf 6f3f 2158 7a3f 4341 723f e97d 763f
000000c0: f17f 863f df9d 7c3f 92fc 863f 6a8d 7c3f
000000d0: 8911 853f 9e06 763f b987 723f 8dd8 823f
000000e0: b46f 7e3f 6403 723f 7ec6 7a3f 0902 883f
000000f0: 71ac 8e3f 5a76 6f3f 45ef 883f 7ca2 923f
00000100: 13d5 843f c121 853f 695f 7d3f 5bfa 853f
00000110: 2c59 823f e222 8b3f 6f66 833f 114b 6b3f
00000120: 5f49 743f bd0b 813f 5064 873f 2b9c 6c3f
00000130: a1a9 8a3f 40e7 6e3f 803b 7e3f 0171 833f
00000140: 9d34 773f 8b33 873f dda8 823f 46df 713f
00000150: 2d89 723f 30f1 833f a313 7e3f 5406 7d3f
00000160: e443 823f b85d 883f df26 723f 2c62 773f
00000170: 5748 893f 2c39 683f 0e34 833f efba 863f
00000180: 5de9 7e3f 0296 873f 5730 773f 2399 6e3f
00000190: 2259 833f 23d7 7c3f 14b8 863f ac11 6e3f
000001a0: b2d7 823f 31f6 843f e016 7d3f 2907 7c3f
000001b0: 1eb5 8c3f 2407 863f cc4f 6f3f 7b44 853f
000001c0: 24f3 7c3f b3b5 873f ab60 7b3f 434d 813f
000001d0: 115b 6b3f 6285 8b3f 9296 6f3f de22 853f
000001e0: 743c 823f 6f6e 7d3f de3e 893f fe3a 863f
000001f0: 1578 863f a891 863f 587f 8a3f aa02 763f

gnn_list.0.proj_edges._E.3.bias f4 [128]
0.0503431 -0.0056518214 0.11583273 -0.009657895 -0.031457555 0.09155929 0.025787277 0.077353954
0.05890299 0.08080842 -0.031337466 0.030508963 0.041803118 0.05302135 -0.046282582 0.006330337
-0.019963562 0.06831736 -0.061844714 0.020739254 -0.05688048 0.08953651 -0.012695606 0.04762448
-0.06305773 0.013059647 -0.0068342094 -0.03402839 -0.0019394574 -0.09345014 0.040953126 0.035360463
-0.09601056 -0.041491464 -0.048030466 -0.06181681 0.116973534 0.084836215 -0.05573927 0.12609787
0.06197405 0.051148023 -0.027815945 -0.07438948 -0.015948558 -0.015289557 -0.037966803 0.020395821
-0.0762047 0.022981146 -0.089867175 -0.12949094 -0.12165002 -0.08740581 0.1287029 0.02447084
-0.064037815 -0.12726614 0.061308656 -0.057428155 0.04620582 -0.043948006 0.101344675 -0.023091527
-0.08460551 0.011985136 0.064170755 0.032976083 0.015673175 0.18160528 -0.12491417 0.05519466
0.12107043 0.13709544 -0.04808403 0.04106243 0.07852799 -0.07456946 -0.02328876 -0.033497874
0.13503298 0.0067604748 0.023577794 0.05504449 0.05353623 0.04312496 -0.04464267 -0.07508462
-0.038108613 0.028093435 0.07118808 0.025551157 -0.036247287 -0.030357474 -0.13646002 0.116626315
0.10977624 -0.08553911 0.075508125 -0.051309016 0.11354407 -0.019423205 0.014935749 -0.05832649
0.039607786 0.025914568 -0.00238457 -0.11872724 0.09916006 0.14451501 0.008664928 -0.035743058
0.0065579177 -0.16680907 0.05064549 0.1810882 0.021207493 -0.054605253 0.03374323 -0.13629256
-0.014781198 0.040422376 0.04003521 0.10410817 -0.0450417 0.017313918 -0.06538483 -0.060497582
00000000: 9134 4e3d ea32 b9bb b639 ed3d 263c 1ebc
00000010: a3d9 00bd 7083 bb3d d73f d33c c06b 9e3d
00000020: 4344 713d e37e a53d b75b 00bd efed f93c
00000030: bf39 2b3d ea2c 593d ce92 3dbd b76e cf3b
00000040: a08a a3bc f9e9 8b3d e250 7dbd 5ee5 a93c
00000050: 82fb 68bd eb5e b73d 3b01 50bc e311 433d
00000060: 6924 81bd 21f8 553c 81f1 dfbb 5a61 0bbd
00000070: 6435 feba c962 bfbd 77be 273d 22d6 103d
00000080: 2fa1 c4bd f4f2 29bd 98bb 44bd a033 7dbd
00000090: d28f ef3d 9cbe ad3d dc4e 64bd cd1f 013e
000000a0: 80d8 7d3d 9780 513d 44de e3bc 8359 98bd
000000b0: 8da6 82bc 0d81 7abc 1483 1bbd 2315 a73c
000000c0: 3611 9cbd f542 bc3c 480c b8bd 4699 04be
000000d0: a523 f9bd d101 b3bd b1ca 033e 1277 c83c
000000e0: 4226 83bd 0e52 02be c91e 7b3d c939 6bbd
000000f0: 5042 3d3d d302 34bd cc8d cf3d 712a bdbc
00000100: a745 adbd 4e5d 443c f56b 833d ee11 073d
00000110: 0865 803c bcf6 393e 00d3 ffbd cc13 623d
00000120: c6f3 f73d bf62 0c3e c3f3 44bd 1431 283d
00000130: 48d3 a03d dfb7 98bd 12c8 bebc 1135 09bd
00000140: 1646 0a3e f986 dd3b 3826 c13c 5576 613d
00000150: ce48 5b3d cca3 303d 3bdb 36bd f7c5 99bd
00000160: c717 1cbd 3424 e63c 0ecb 913d a950 d13c
00000170: 0978 14bd 3db0 f8bc 2dbc 0bbe c7d9 ee3d
00000180: 5ed2 e03d 212f afbd 01a4 9a3d 6729 52bd
00000190: cb89 e83d 6a1d 9fbc 12b5 743c c2e7 6ebd
000001a0: c63b 223d ca4a d43c 7246 1cbb 4427 f3bd
000001b0: 6e14 cb3d befb 133e 58f7 0d3c 5067 12bd
000001c0: cde3 d63b ffcf 2abe a571 4f3d 2f6f 393e
000001d0: 56bb ad3c c2a9 5fbd 5736 0a3d 4790 0bbe
000001e0: d72c 72bc ef91 253d f6fb 233d aa36 d53d
000001f0: a57d 38bd ebd5 8d3c 7be8 85bd 50cc 77bd

gnn_list.0.proj_edges._E.4.weight f4 [64, 128]
0.00094563735 -0.09370918 0.34323186 0.09422526 0.105602816 -0.008878862 -0.24027726 0.06662079
-0.08034444 0.0051778737 -0.035580203 -0.057750247 0.07962502 0.08709827 0.089461274 0.109381564
-0.029396567 0.19726361 0.011679727 -0.36021087 0.06655908 0.19714609 -0.14731382 -0.14149378
0.21817544 -0.07504476 0.19418813 0.10128819 0.15186307 -0.16511133 0.21457669 -0.053068582
0.26415342 -0.05226819 -0.07063249 -0.0068553383 0.035108868 0.04981672 0.0048298305 -0.06190596
0.011783792 0.0036470976 0.046555784 -0.2927495 0.050066203 0.27609888 -0.06348084 0.10770589
0.019628549 0.18877362 0.17013775 -0.08706188 0.014663568 -0.11396545 0.011477457 0.14533344
0.07118858 -0.14397788 0.18280074 0.19807824 -0.10488857 -0.119306475 0.08012749 0.18804905
0.034794025 -0.14507377 0.034297697 0.18178771 -0.033512704 -0.121372215 0.2732984 0.06025565
0.052715577 -0.0056374664 0.10839017 -0.003902176 -0.11163259 0.13167417 0.07643135 -0.1282169
-0.008618105 0.26244718 -0.028882653 0.18491623 0.08312154 -0.20809603 0.13920878 -0.08713826
-0.23330699 -0.1713048 -0.19890605 0.17462324 -0.18285339 0.019201517 0.07233979 0.09045413
-0.12945089 -0.08539586 -0.030477164 -0.1823183 0.11296536 0.20281608 0.25393865 -0.148052
-0.1610251 -0.07796352 0.012373432 -0.10119253 -0.082085826 -0.19064459 0.12785292 0.015436682
0.011772577 0.038857255 0.04278072 0.028191697 -0.020975769 -0.03503852 0.11879584 0.09747845
0.04132101 0.04949559 -0.09245424 0.13666692 -0.09871638 0.051223133 0.048783876 -0.120218635
-0.03162465 0.0013123406 0.08221256 -0.14795482 0.08093409 -0.046833023 0.043250788 0.05729586
0.120940536 -0.15956599 0.12817548 -0.04673513 0.03722107 -0.24990016 -0.049127165 0.17828834
-0.021350218 -0.15946549 0.0952181 -0.12218618 0.26303473 0.17185405 -0.1960514 0.026940562
-0.08834269 -0.040922802 0.1894226 -0.15107872 0.04836806 0.041635886 -0.11197644 -0.06157918
0.072670445 0.016292581 -0.11644644 -0.07562561 0.028486287 -0.17010415 0.08336925 0.0016798472
0.07393682 0.0017071929 -0.15196604 -0.07632094 0.18830208 -0.13068902 0.043651707 0.086614884
-0.001029441 0.05420768 -0.06875304 -0.11164476 -0.011539368 0.1066583 -0.024771893 -0.081135735
-0.0393051 0.045642816 -0.14339916 0.060874276 -0.014384191 -0.013865041 -0.0030337656 0.0858521
0.2081637 0.06570198 -0.028799787 -0.018288087 0.18718344 0.30549732 -0.113429785 -0.31379238
0.04923147 -0.13429402 -0.12599833 -0.04360342 0.1180151 -0.004439294 0.007993093 0.086042866
0.0699928 0.025508707 0.17542969 0.07779834 -0.017702065 -0.16887999 -0.22276765 -0.009976124
0.12854014 0.03420008 -0.0781634 0.03735248 0.17530152 0.066112794 -0.017302617 0.14189872
0.15801626 -0.11322051 -0.089765094 0.007300918 -0.34078595 -0.036135383 0.13036935 0.118395984
0.055282798 0.13113211 -0.028727835 0.013918509 0.072656244 0.10384247 -0.14868009 -0.12139702
0.0038461315 -0.07497283 0.30077115 -0.103237055 -0.10040103 0.0383987 -0.07167236 0.1555053
0.13257372 0.14832564 0.21458678 -0.06503485 -0.07877178 -0.15881781 0.06476989 -0.279972
00000000: a6e4 773a 99ea bfbd 16bc af3e 2cf9 c03d
00000010: 4a46 d83d a578 11bc 3e0b 76be 7b70 883d
00000020: a08b a4bd 27ab a93b 8cbc 11bd 868b 6cbd
00000030: 7112 a33d 9460 b23d 7937 b73d 7103 e03d
00000040: 12d1 f0bc 79ff 493e 535c 3f3c 8f6d b8be
00000050: 2050 883d aae0 493e 6fd9 16be bfe3 10be
00000060: 6269 5f3e 11b1 99bd 41d9 463e 2f70 cf3d
00000070: fe81 1b3e f212 29be feb9 5b3e 715e 59bd
00000080: 1e3f 873e 2b17 56bd c4a7 90bd bfa2 e0bb
00000090: 51ce 0f3d 9e0c 4c3d 8e43 9e3b 1b91 7dbd
000000a0: ce10 413c 2504 6f3b 47b1 3e3d 43e3 95be
000000b0: 3812 4d3d d55c 8d3e 3e02 82bd e894 dc3d
000000c0: 0dcc a03c df4d 413e 9738 2e3e 804d b2bd
000000d0: 763f 703c b866 e9bd f20b 3c3c 4ad2 143e
000000e0: 51cb 913d f06e 13be 1e30 3b3e 06d5 4a3e
000000f0: d2cf d6bd f456 f4bd e219 a43d ee8f 403e
00000100: 2e84 0e3d 388e 14be be7b 0c3d 8f26 3a3e
00000110: 9e44 09bd ff91 f8bd c5ed 8b3e a1ce 763d
00000120: 4aec 573d 7fba b8bb aafb dd3d a6bb 7fbb
00000130: a19f e4bd 98d5 063e 0a88 9c3d 4b4b 03be
00000140: f432 0dbc 7a5f 863e 509b ecbc ae5a 3d3e
00000150: a03b aa3d 2017 55be bf8c 0e3e 8b75 b2bd
00000160: 07e8 6ebe 876a 2fbe 07ae 4bbe 6fd0 323e
00000170: eb3d 3bbe 804c 9d3c e226 943d 0440 b93d
00000180: c68e 04be 06e4 aebd 3fab f9bc a6b1 3abe
00000190: 625a e73d 05af 4f3e 3f04 823e f29a 17be
000001a0: c4e3 24be 57ab 9fbd efb9 4a3c 073e cfbd
000001b0: 9d1c a8bd 5638 43be e0eb 023e 23ea 7c3c
000001c0: c4e1 403c c928 1f3d d63a 2f3d 46f2 e63c
000001d0: 60d5 abbc 8d84 0fbd 3c4b f33d c8a2 c73d
000001e0: 3840 293d e3bb 4a3d a658 bdbd 6af2 0b3e
000001f0: d02b cabd 59cf 513d 9ad1 473d 3035 f6bd
00000200: d988 01bd d802 ac3a 0f5f a83d 7881 17be
00000210: c6c0 a53d fcd3 3fbd bd27 313d 10af 6a3d
00000220: acaf f73d 4465 23be 6f40 033e 566d 3fbd
00000230: 1f75 183d d4e5 7fbe 9139 49bd 3891 363e
00000240: a7e6 aebc ec4a 23be b501 c33d bf3c fabd
00000250: 7dac 863e 82fa 2f3e b3c1 48be 74b2 dc3c
00000260: 03ed b4bd ab9e 27bd 00f8 413e 61b4 1abe
00000270: 961d 463d 648a 2a3d e753 e5bd 733a 7cbd
00000280: 3ed4 943d 0578 853c 797b eebd 9ae1 9abd
00000290: 135c e93c c82f 2ebe 7fbd aa3d 522e dc3a
000002a0: 306c 973d e3c3 df3a fc9c 1bbe 274e 9cbd
000002b0: 43d2 403e 58d3 05be 22cc 323d 2563 b13d
000002c0: 4fee 86ba df08 5e3d 65ce 8cbd 02a6 e4bd
000002d0: 9e0f 3dbc ab6f da3d 6dee cabc 7e2a a6bd
000002e0: 62fe 20bd f6f3 3a3d 3bd7 12be 4e57 793d
000002f0: abab 6bbc 322a 63bc 24d2 46bb 3ad3 af3d
00000300: dd28 553e c28e 863d 88ed ebbc e6d0 95bc
00000310: 04ad 3f3e 256a 9c3e e04d e8bd 65a9 a0be
00000320: f0a6 493d 5f84 09be b505 01be 8099 32bd
00000330: e7b1 f13d 7f77 91bb 76f5 023c 3e37 b03d
00000340: 6358 8f3d a3f7 d03c d7a3 333e bc54 9f3d
00000350: ec03 91bc e0ee 2cbe 341d 64be e672 23bc
00000360: 07a0 033e 6215 0c3d 2214 a0bd eafe 183d
00000370: 3e82 333e 2566 873d 38be 8dbc e64d 113e
00000380: 04cf 213e 28e0 e7bd c3d6 b7bd 8a3c ef3b
00000390: 7f7b aebe b202 14bd 8b7f 053e 9879 f23d
000003a0: 3770 623d 7f47 063e a356 ebbc 750a 643c
000003b0: cccc 943d 5cab d43d 983f 18be 009f f8bd
000003c0: 610f 7c3b 5b8b 99bd adfe 993e f36d d3bd
000003d0: 0e9f cdbd f547 1d3d f5c8 92bd c83c 1f3e
000003e0: 68c1 073e ade2 173e a3bc 5b3e fe30 85bd
000003f0: 1953 a1bd 23a1 22be 13a6 843d 7d58 8fbe

gnn_list.0.proj_edges._E.4.bias f4 [64]
0.045623608 0.02124191 -0.042316332 0.03653875 0.0683459 0.03526583 0.013156571 -0.020917516
0.0052919327 -0.08100451 0.018586418 0.037465967 -9.771267e-05 -0.023317326 0.004517994 -0.00582137
0.03218541 -0.11250432 0.06246923 0.08468142 0.004355514 0.13576472 -0.06511696 0.07452487
0.121430956 0.050526325 -0.17494372 0.060213957 0.030333307 -0.10939405 -0.06381973 -0.048208497
-0.03818092 0.0037816227 0.025530122 -0.01943639 0.028356578 -0.06258249 -0.016671209 -0.04193127
0.086386956 -0.112703055 -0.116127655 0.0495271 0.07828149 0.010316162 -0.07067708 0.06937605
-0.112006746 0.123324156 -0.09167551 0.10651806 0.032677755 0.13988803 0.034788877 0.094605625
0.045933634 -0.013865321 0.09264722 -0.06869526 -0.14985968 0.11295733 0.056415252 -0.07558987
00000000: d2df 3a3d 8403 ae3c e453 2dbd a8a9 153d
00000010: eff8 8b3d e772 103d a98e 573c 365b abbc
00000020: f367 ad3b b1e5 a5bd 8b42 983c ea75 193d
00000030: 17eb ccb8 fa03 bfbc ae0b 943b 31c1 bebb
00000040: d9d4 033d aa68 e6bd bcdf 7f3d 746d ad3d
00000050: b3b8 8e3b e805 0b3e 0a5c 85bd 7fa0 983d
00000060: cbb0 f83d b1f4 4e3d 7224 33be e9a2 763d
00000070: 8e7d f83c fd09 e0bd ebb3 82bd 4676 45bd
00000080: 9963 1cbd 1ad5 773b 8c24 d13c 1039 9fbc
00000090: 0e4c e83c 402b 80bd 0f92 88bc 20c0 2bbd
000000a0: a5eb b03d dcd0 e6bd 56d4 edbd eedc 4a3d
000000b0: 0c52 a03d 1f05 293c 25bf 90bd 0815 8e3d
000000c0: cb63 e5bd 6091 fc3d 5fc0 bbbd 2426 da3d
000000d0: 1cd9 053d cf3e 0f3e c87e 0e3d 98c0 c13d
000000e0: e824 3c3d 5f2b 63bc d3bd bd3d 1ab0 8cbd
000000f0: d174 19be 2c56 e73d ae13 673d ddce 9abd

gnn_list.0.proj_out.weight f4 [64, 64]
0.09360102 0.044204783 0.012409499 0.30901113 0.073652886 0.19180492 -0.022638207 0.33726466
-0.065853655 0.07171606 0.2505485 -0.10866775 -0.084849395 0.010576504 0.11737834 -0.08328331
0.09488887 -0.27509853 0.14583047 -0.07510568 0.16714378 0.061401732 0.07093615 -0.18497747
0.02689414 0.11972467 0.04534975 0.204364 -0.03641967 0.1780955 -0.10139309 0.31449774
0.12898786 0.19241375 0.12091412 0.090938635 -0.044370968 0.040687725 0.28611025 -0.10945696
0.060542554 0.24006493 0.009265795 0.06716301 0.060996942 -0.07660883 -0.08494968 -0.14387536
-0.007148292 -0.092502885 -0.046606645 0.3290717 0.006423575 0.083029844 0.14213099 0.015897498
0.1301863 -0.028996652 -0.0048622196 0.18520442 0.18507515 -0.14619505 0.056361333 0.13599883
-0.085188076 0.38867807 0.042123385 -0.0008288691 -0.019159393 0.1987447 -0.022222815 0.014904224
-0.020965477 0.066798076 -0.11659312 -0.018817686 0.06754599 -0.0035181239 0.042126887 0.24985227
0.10694348 0.08269555 0.11181296 -0.058437906 -0.23500654 -0.09150813 -0.18448299 -0.05752749
0.08962622 -0.12054643 -0.098729275 -0.315764 0.29377252 -0.23988214 -0.053020928 0.08828426
-0.11228904 0.19491841 -0.063782424 -0.017577054 0.015217353 0.039275225 -0.21042278 -0.2032369
-0.12249675 -0.019590843 -0.13367662 -0.007857209 -0.043135967 0.15067767 0.11433908 0.090619385
0.18222542 -0.07030249 -0.20711465 0.06737261 0.046353187 0.14713155 -0.024793686 -0.32470447
0.032995686 -0.26047406 -0.034746982 0.017649278 0.011003585 0.04106293 0.07785835 0.08665784
0.002334887 0.14790201 0.24409696 -0.019151058 -0.022894688 0.13243441 -0.04845122 -0.24050044
-0.1339917 0.034969576 -0.15017527 -0.14296235 0.0399908 -0.01967646 -0.11383902 0.08401762
-0.2695924 0.029464234 -0.24134047 -0.010115492 -0.24630868 0.20050152 -0.09221148 -0.083002865
-0.19617829 0.0059189936 -0.114241466 -0.09116348 0.06829379 -0.110673904 -0.16081563 0.063063525
0.095901534 -0.2846898 -0.054270197 -0.09602652 -0.062619016 0.0077420995 -0.053684797 0.005291622
-0.19330426 -0.15483178 0.19707716 -0.03029615 0.11017335 -0.03493817 0.102882296 0.083750926
-0.12721865 -0.24236019 0.0679276 0.1715501 -0.23306878 -0.046439067 -0.13887404 -0.016265487
0.054378014 0.19061735 0.0352847 0.013666056 -0.12110783 -0.089191556 -0.14852573 -0.17514022
0.090163395 -0.03252806 0.0692573 0.0151357865 0.05929368 -0.13814951 -0.10513079 0.15364291
-0.009526414 0.022718735 0.30217552 -0.059396524 -0.086418584 0.094452105 -0.086324304 -0.1518589
-0.24943049 -0.056883126 0.1992061 -0.18093593 0.24038996 -0.069165654 0.08994384 -0.0299512
0.1255009 0.140867 -0.0844578 -0.07153553 -0.09836017 -0.07720733 -0.30058172 -0.18910806
0.16467644 0.099254765 -0.18299128 0.007041506 -0.21516229 0.22184929 0.18334337 0.06367561
0.09982788 -0.036003653 0.1018259 0.039427552 0.0075840685 0.050681327 0.11097288 -0.11665437
0.0035456424 -0.07997809 0.20944808 -0.16990615 0.020520246 0.11252447 0.22847869 -0.078036115
-0.011745544 0.2574356 4.5591612e-05 0.122440256 0.030833485 0.025359636 0.14207867 0.09355382
00000000: e4b1 bf3d 1310 353d 3651 4b3c b536 9e3e
00000010: 53d7 963d 8268 443e c373 b9bc f4ad ac3e
00000020: 48de 86bd dfdf 923d e547 803e 338d debd
00000030: 85c5 adbd 1349 2d3c 0e64 f03d 7190 aabd
00000040: 1955 c23d b7d9 8cbe 9554 153e 02d1 99bd
00000050: bd27 2b3e 6280 7b3d f946 913d bc6a 3dbe
00000060: 1951 dc3c 3532 f53d a9c0 393d cc44 513e
00000070: cb2c 15bd ab5e 363e 2ea7 cfbd d905 a13e
00000080: 6515 043e 1c08 453e d2a1 f73d 093e ba3d
00000090: 55be 35bd 2ca8 263d 0b7d 923e f82a e0bd
000000a0: 78fb 773d 95d3 753e 90cf 173c c38c 893d
000000b0: eed7 793d 17e5 9cbd 19fa adbd 1054 13be
000000c0: 383c eabb 2772 bdbd 9ce6 3ebd 167c a83e
000000d0: da7c d23b 8d0b aa3d c98a 113e 783b 823c
000000e0: 8f4f 053e 638a edbc 4153 9fbb 3aa6 3d3e
000000f0: 5784 3d3e 28b4 15be 24db 663d 4743 0b3e
00000100: 1677 aebd d000 c73e 9289 2c3d 7748 59ba
00000110: 29f4 9cbc bb83 4b3e 9f0c b6bc d930 743c
00000120: cbbf abbc 6ecd 883d 60c8 eebd 8c27 9abc
00000130: 8d55 8a3d 5390 66bb 3e8d 2c3d 46d9 7f3e
00000140: 2f05 db3d 495c a93d 31fe e43d 965c 6fbd
00000150: 8ea5 70be 9d68 bbbd 1ce9 3cbe f2a1 6bbd
00000160: f48d b73d 0ce1 f6bd 9332 cabd d2ab a1be
00000170: 5a69 963e aaa3 75be 792c 59bd 61ce b43d
00000180: ccf7 e5bd b198 473e 5ca0 82bd c1fd 8fbc
00000190: 3452 793c 0fdf 203d 1279 57be 551d 50be
000001a0: 93df fabd fa7c a0bc 86e2 08be 86bb 00bc
000001b0: 57af 30bd 3f4b 1a3e 9c2a ea3d a896 b93d
000001c0: 4d99 3a3e c0fa 8fbd dd15 54be a7fa 893d
000001d0: d7dc 3d3d a7a9 163e 211c cbbc aa3f a6be
000001e0: 7c26 073d db5c 85be da52 0ebd 3895 903c
000001f0: 6148 343c 9a31 283d 3374 9f3d aa79 b13d
00000200: e704 193b a073 173e 8ef4 793e aee2 9cbc
00000210: a48d bbbc e39c 073e c974 46bd bf45 76be
00000220: 1f35 09be 423c 0f3d 8cc7 19be b964 12be
00000230: 65cd 233d 8730 a1bc 6f24 e9bd 6e11 ac3d
00000240: 0408 8abe fa5e f13c f521 77be 73bb 25bc
00000250: 5838 7cbe 4550 4d3e 5fd9 bcbd 68fd a9bd
00000260: f6e2 48be 1ef4 c13b 6ef7 e9bd ebb3 babd
00000270: 9ddd 8b3d 00a9 e2bd daac 24be 7327 813d
00000280: 0668 c43d ddc2 91be 6d4a 5ebd 8da9 c4bd
00000290: 663e 80bd 70b1 fd3b 97e4 5bbd 5865 ad3b
000002a0: 8df1 45be 398c 1ebe 98ce 493e a22f f8bc
000002b0: 91a2 e13d 541b 0fbd f4b3 d23d 9b85 ab3d
000002c0: 9b45 02be 452d 78be a01d 8b3d d4aa 2f3e
000002d0: 95a9 6ebe e436 3ebd ff34 0ebe 333f 85bc
000002e0: 7bbb 5e3d 3231 433e b186 103d 98e7 5f3c
000002f0: 6207 f8bd 10aa b6bd 2117 18be f557 33be
00000300: 96a7 b83d 253c 05bd c5d6 8d3d 17fc 773c
00000310: eedd 723d 1177 0dbe d04e d7bd 9154 1d3e
00000320: ad14 1cbc a41c ba3c c0b6 9a3e c549 73bd
00000330: 3afc b0bd 1b70 c13d ccca b0bd e680 1bbe
00000340: b56a 7fbe 48fe 68bd affc 4b3e 4547 39be
00000350: c928 763e b9a6 8dbd 7a34 b83d 385c f5bc
00000360: 4f83 003e 703f 103e 36f8 acbd 3881 92bd
00000370: 0f71 c9bd e01e 9ebd d9e5 99be 8ba5 41be
00000380: f1a0 283e 1546 cb3d 1162 3bbe 6fbc e63b
00000390: 8153 5cbe 762c 633e 5dbe 3b3e 5c68 823d
000003a0: 8f72 cc3d 9178 13bd 198a d03d c97e 213d
000003b0: c783 f83b 3997 4f3d c045 e33d 7de8 eebd
000003c0: 025e 683b 8ecb a3bd 8f79 563e e1fb 2dbe
000003d0: 131a a83c 3b73 e63d 51f6 693e 66d1 9fbd
000003e0: 6270 40bc 99ce 833e 9f39 3f38 f5c1 fa3d
000003f0: 8196 fc3c 03bf cf3c 127d 113e 2599 bf3d

gnn_list.0.proj_out.bias f4 [64]
0.0001238524 3.1803822e-05 7.9561926e-07 -1.4700247e-07 -0.00019125125 9.697578e-05 -9.627219e-05 6.4998756e-05
4.253761e-05 0.00014539405 -0.00020762824 -4.087689e-05 3.5098208e-05 -1.3003956e-05 4.2331016e-05 -9.346273e-05
0.00012516005 4.5210814e-05 7.475427e-05 0.00017028929 -9.8840304e-05 9.2151146e-05 -0.00015371873 -2.4524106e-06
0.00025255902 8.439989e-05 4.7369347e-05 -2.3597968e-05 -0.000119133096 2.3077262e-05 0.00030520133 2.683196e-05
-8.928036e-05 -4.8322756e-05 -0.00022856877 5.165258e-06 -0.00015557134 -0.00018028199 7.843283e-06 0.00019492653
0.00022623368 0.00010521376 0.00012365366 -0.00011700984 3.514356e-06 7.412486e-05 0.00012994245 -4.0871266e-05
2.9419853e-05 -5.913803e-05 0.00016558217 0.00020528834 -2.6162239e-05 5.707693e-05 0.00024308944 8.35479e-05
8.589101e-05 -3.9963696e-05 2.4437282e-05 3.62365e-05 -4.8507078e-05 -4.340951e-05 -2.3766158e-06 0.00015282375
00000000: 60de 0139 1865 0538 8a92 5535 bbd7 1db4
00000010: 9e8a 48b9 7a5f cb38 bde5 c9b8 f14f 8838
00000020: 696a 3238 eb74 1839 c8b6 59b9 3a73 2bb8
00000030: 6a36 1338 912b 5ab7 958c 3138 6c01 c4b8
00000040: 653d 0339 bea0 3d38 65c5 9c38 af8f 3239
00000050: 7c48 cfb8 4541 c138 8f2f 21b9 1894 24b6
00000060: e669 8439 d9ff b038 73ae 4638 40f4 c5b7
00000070: 18d7 f9b8 0b96 c137 6e03 a039 3215 e137
00000080: 073c bbb8 2aae 4ab8 f6ab 6fb9 3a51 ad36
00000090: dd20 23b9 140a 3db9 a596 0337 3165 4c39
000000a0: 2439 6d39 35a6 dc38 07a9 0139 2e63 f5b8
000000b0: 2dd8 6b36 7b73 9b38 2941 0839 306d 2bb8
000000c0: a7ca f637 fa0a 78b8 20a0 2d39 ab42 5739
000000d0: fb76 dbb7 e365 6f38 d3e5 7e39 7036 af38
000000e0: 6320 b438 b19e 27b8 aafe cc37 a5fc 1738
000000f0: 1474 4bb8 9b12 36b8 f37d 1fb6 503f 2039

gnn_list.0.edge_bn._E.weight f4 [64]
1.0933367 1.0566962 1.0162542 0.8933207 0.92634034 1.0320143 0.9602833 1.0357367
0.8995555 1.0000824 1.1042457 0.9503118 0.89065224 0.9659506 1.0157803 0.958201
0.9666325 0.9858546 0.9305011 0.9663818 0.9910375 0.86962074 0.939203 0.91117316
0.9168157 1.1055065 0.9247081 0.91310924 1.102945 0.9554953 0.9375589 1.0797791
0.98062605 0.90883756 1.0220356 0.9389009 1.0702094 1.0543681 1.0761402 0.99321175
0.88706315 1.0029812 0.8808235 1.0104156 0.92222315 1.0352242 0.9558093 0.96771204
0.86946523 0.9208879 1.0202471 0.88054806 1.0260082 0.9478598 1.0773016 0.9190239
1.1030685 0.9561047 0.90426505 1.0689118 0.95412356 0.9022052 0.9613975 1.0313642
00000000: 75f2 8b3f d241 873f 9e14 823f aab0 643f
00000010: a424 6d3f 0b19 843f 20d5 753f 0593 843f
00000020: 4549 663f b302 803f ec57 8d3f a247 733f
00000030: c901 643f 8a48 773f 1705 823f a94c 753f
00000040: 3a75 773f f860 7c3f 5235 6e3f cc64 773f
00000050: a2b4 7d3f 779f 5e3f 9c6f 703f a542 693f
00000060: 6fb4 6a3f 3d81 8d3f acb9 6c3f 87c1 693f
00000070: 4d2d 8d3f 579b 743f dc03 703f 3436 8a3f
00000080: 4f0a 7b3f 94a9 683f 10d2 823f cf5b 703f
00000090: 9ffc 883f 89f5 863f f6be 893f 2043 7e3f
000000a0: 9216 633f b061 803f a67d 613f 4c55 813f
000000b0: d116 6c3f 3a82 843f ebaf 743f fabb 773f
000000c0: 4695 5e3f 4fbf 6b3f 7597 823f 996b 613f
000000d0: 3d54 833f f1a6 723f 05e5 893f 2645 6b3f
000000e0: 5931 8d3f 47c3 743f ea7d 673f 1ad2 883f
000000f0: 7141 743f ecf6 663f 261e 763f be03 843f

gnn_list.0.edge_bn._E.bias f4 [64]
-0.11203999 0.015870601 0.1974314 -0.17207485 0.11785773 -0.1139365 0.05915502 -0.038160868
0.12512556 -0.028323604 -0.0020387347 -0.09670718 0.032400813 -0.1394371 -0.004021697 0.02031066
-0.1412381 0.15154727 -0.2595107 -0.17375553 -0.15861233 0.14396758 -0.21073553 -0.08459644
0.053376388 -0.032383252 0.0051688035 -0.13492857 -0.07909897 0.11938692 -0.053472772 0.045105506
-0.063883506 -0.26155972 -0.021306712 0.22465234 -0.07912349 -0.110745564 -0.10594956 0.12030873
-0.1664073 -0.24032928 0.037889466 -0.11742205 0.032657642 -0.13893953 0.070954494 0.0720242
-0.17376716 -0.12821677 0.124427356 -0.19549954 0.038479354 0.1618237 -0.0094450805 -0.26593754
-0.03272196 -0.07874232 0.19785053 -0.029595805 -0.033622645 0.036770973 -0.034357093 -0.11641916
00000000: 3975 e5bd 1003 823c 752b 4a3e 6434 30be
00000010: 655f f13d 8a57 e9bd 894c 723d 924e 1cbd
00000020: ea20 003e e706 e8bc 4b9c 05bb 6a0e c6bd
00000030: b7b6 043d 99c8 0ebe 71c8 83bb 8b62 a63c
00000040: b8a0 10be 352f 1b3e 96de 84be f8ec 31be
00000050: 456b 22be 3d6c 133e 0ecb 57be e640 adbd
00000060: 33a1 5a3d 4da4 04bd 115f a93b b72a 0abe
00000070: a4fe a1bd 2181 f43d 4406 5bbd 8dc0 383d
00000080: 5bd5 82bd 28eb 85be 6a8b aebc 430b 663e
00000090: 7f0b a2bd 92ce e2bd 15fc d8bd 6c64 f63d
000000a0: ad66 2abe e118 76be fc31 1b3d f97a f0bd
000000b0: 05c4 053d 2a46 0ebe 9750 913d 6c81 933d
000000c0: 05f0 31be 424b 03be c5d3 fe3d 0831 48be
000000d0: 879c 1d3d 1db5 253e 8abf 1abc f728 88be
000000e0: 7607 06bd a743 a1bd 5499 4a3e e772 f2bc
000000f0: e6b7 09bd 299d 163d 06ba 0cbd 2b6d eebd

gnn_list.0.edge_bn._E.running_mean f4 [64]
-0.7539162 0.22069214 -0.84125704 3.0662036 1.7576176 0.8558637 3.8252854 -0.7191771
1.8500499 0.6609203 -0.70420307 2.5671003 -0.82829577 0.8769863 -0.8200607 3.1923716
2.6100535 -0.67398196 2.2922857 2.1487012 -0.53357065 1.7248926 -0.7884063 1.4583303
1.096223 0.36904454 -0.89660466 1.8900986 1.7030348 -0.56430286 -0.78302217 0.60900795
-0.71636766 2.4487593 1.4835312 1.3234891 1.7305655 -0.7748731 -0.16604562 -0.51601493
1.2192664 -0.87218505 -0.65115416 1.6417158 2.426037 1.0538073 -0.91910094 2.0385492
-0.640768 1.4771694 -0.766868 1.2291018 -0.6204887 1.7782563 -0.6352504 4.4504256
-0.078764744 0.40147713 2.4086103 -0.89714634 -0.82776785 0.98267037 1.5466352 0.1451612
00000000: a700 41bf 1ffd 613e 9f5c 57bf ae3c 4440
00000010: 9df9 e03f e219 5b3f 7ad1 7440 fe1b 38bf
00000020: 6fce ec3f 1332 293f a746 34bf 5f4b 2440
00000030: 310b 54bf 2d82 603f 7fef 51bf d14f 4c40
00000040: 1e0b 2740 158a 2cbf cfb4 1240 5284 0940
00000050: 1698 08bf 48c9 dc3f ffd4 49bf 91aa ba3f
00000060: 0951 8c3f 68f3 bc3e e287 65bf c0ee f13f
00000070: 0bfd d93f 2776 10bf 2474 48bf f2e7 1b3f
00000080: df63 37bf 79b8 1c40 5ae4 bd3f 1768 a93f
00000090: 2c83 dd3f 155e 46bf dd07 2abe 8e19 04bf
000000a0: ec10 9c3f 8547 5fbf 0ab2 26bf be23 d23f
000000b0: 3144 1b40 28e3 863f 334a 6bbf 9777 0240
000000c0: 5f09 24bf e313 bd3f 7651 44bf 3553 9d3f
000000d0: 59d8 1ebf e79d e33f c59f 22bf e369 8e40
000000e0: 694f a1bd 698e cd3e ac26 1a40 62ab 65bf
000000f0: 98e8 53bf 4990 7b3f 24f8 c53f 23a5 143e

gnn_list.0.edge_bn._E.running_var f4 [64]
2.3508735 2.5981343 1.8504331 13.294862 7.705189 2.9833286 18.647148 1.8193957
6.8342094 3.2158563 2.103854 10.041163 1.8520335 3.4487355 1.8865213 13.907995
9.93386 0.9064051 8.162793 7.8834147 1.5051048 5.279483 1.1910117 5.3644814
4.042896 2.6947904 1.1720114 7.6554003 6.579764 0.8817627 1.6335303 2.9957366
1.5753108 10.060269 4.6389413 5.540118 5.4277287 1.4374611 1.9288361 1.3701217
5.0119967 1.4247056 1.1261026 5.5492043 8.892569 4.2960515 1.0432649 6.782731
0.69808644 6.264207 1.3437794 4.296508 2.3115938 7.1043096 3.6097827 24.185602
2.5109174 2.3112826 8.756543 0.99613494 1.6807507 3.8479354 6.053531 2.1281466
00000000: b674 1640 d547 2640 feda ec3f c1b7 5441
00000010: e990 f640 dbee 3e40 5c2d 9541 f5e1 e83f
00000020: d8b1 da40 97d0 4d40 8ba5 0640 9ba8 2041
00000030: 6f0f ed3f 15b8 5c40 8879 f13f 2687 5e41
00000040: 17f1 1e41 2a0a 683f cd9a 0241 ef44 fc40
00000050: 46a7 c03f 86f1 a840 1273 983f d5a9 ab40
00000060: 675f 8140 7277 2c40 7804 963f 0af9 f440
00000070: 6d8d d240 33bb 613f 8517 d13f 26ba 3f40
00000080: c9a3 c93f ddf6 2041 3572 9440 a648 b140
00000090: f4af ad40 bafe b73f 1ae4 f63f 2660 af3f
000000a0: 4762 a040 c15c b63f 2124 903f 1593 b140
000000b0: f647 0e41 4179 8940 b489 853f 220c d940
000000c0: cbb5 323f 6274 c840 f700 ac3f fe7c 8940
000000d0: 27f1 1340 8156 e340 ae06 6740 1d7c c141
000000e0: dfb2 2040 0eec 1340 cd1a 0c41 b302 7f3f
000000f0: d722 d73f 9344 7640 87b6 c140 8e33 0840

bn_list.0.weight f4 [64]
1.1824571 0.9787504 1.031162 0.9484015 1.1615733 1.0236223 0.92525685 0.98155665
0.9617412 1.0367867 1.0660086 1.013259 0.80637 1.0874846 0.9255526 1.0884078
1.0421641 1.0407609 1.0703955 0.7977384 1.1424434 0.96995544 1.1964815 1.0520849
1.1270527 1.0585672 1.0662144 0.86048335 1.1375408 1.0228434 1.1764734 1.0724082
0.98738074 0.99804133 1.1797514 1.1001302 0.9342114 0.97388333 1.0467703 0.97706836
1.064536 1.1659713 0.9155617 1.0825342 1.1136376 1.0570925 1.0448767 0.98620844
1.0815401 1.0429691 0.85507154 1.1274308 1.1664184 0.8727264 0.9888237 0.96414936
0.85699314 1.0022817 0.9484586 0.9361167 1.0914193 1.0449579 0.99503577 0.9439873
00000000: c15a 973f 638f 7a3f 1efd 833f 71ca 723f
00000010: 6fae 943f 0e06 833f a2dd 6c3f 4c47 7b3f
00000020: ac34 763f 6db5 843f f872 883f 79b2 813f
00000030: 446e 4e3f b232 8b3f 04f1 6c3f f250 8b3f
00000040: a265 853f a737 853f b802 893f 9538 4c3f
00000050: 963b 923f 004f 783f 4e26 993f b8aa 863f
00000060: 4343 903f 217f 873f b779 883f a348 5c3f
00000070: f09a 913f 88ec 823f ae96 963f ac44 893f
00000080: fcc4 7c3f a37f 7f3f 1802 973f 11d1 8c3f
00000090: 7a28 6f3f 6b50 793f 92fc 853f 2721 7a3f
000000a0: b742 883f 8c3e 953f 4062 6a3f 7b90 8a3f
000000b0: ad8b 8e3f cf4e 873f 85be 853f 2878 7c3f
000000c0: e86f 8a3f 0380 853f f8e5 5a3f a74f 903f
000000d0: 334d 953f ff6a 5f3f 8d23 7d3f 7ed2 763f
000000e0: e763 5b3f c44a 803f 2fce 723f 58a5 6f3f
000000f0: a1b3 8b3f 2ec1 853f aaba 7e3f 27a9 713f

bn_list.0.bias f4 [64]
0.11638452 -0.07799144 -0.19145058 0.0019166027 0.0026630713 0.13012373 0.058927063 0.08404941
-0.107069254 0.06751265 0.03425685 -0.033969026 -0.010809013 0.099262446 0.023269547 -0.059442032
-0.050120793 0.00024056312 -0.017298944 -0.13024361 0.12196738 0.15986918 -0.032754485 -0.099110775
-0.09547264 -0.20228466 0.12358164 0.015907971 -0.16890624 -0.020520987 0.2583407 0.007981057
0.008035822 -0.23629998 0.03938004 -0.05427433 0.056427743 0.05414498 0.003721638 -0.2461745
0.017502075 0.16348585 0.02716013 0.038305406 0.062303584 -0.01151387 0.10635081 -0.21576625
-0.058460366 0.050314657 0.03855956 0.120002165 0.053084616 -0.028207133 0.13950615 -0.012038168
0.17984998 -0.1764959 -0.11601249 0.011680117 0.00018515834 -0.17103341 -0.06770837 -0.050329294
00000000: 025b ee3d fab9 9fbd 9f0b 44be 8436 fb3a
00000010: ec86 2e3b 283f 053e 815d 713d 1922 ac3d
00000020: 2047 dbbd 1244 8a3d e950 0c3d 1b23 0bbd
00000030: 4918 31bc 1c4a cb3d c79f be3c 7d79 73bd
00000040: 764b 4dbd ac3f 7c39 84b6 8dbc 955e 05be
00000050: 09ca f93d bfb4 233e 9129 06bd 97fa cabd
00000060: 2987 c3bd b623 4fbe 5f18 fd3d 6f51 823c
00000070: c2f5 2cbe a11b a8bc 3b45 843e fbc2 023c
00000080: aea8 033c 9ff8 71be f74c 213d c34e 5ebd
00000090: c720 673d 20c7 5d3d b9e6 733b 2b15 7cbe
000000a0: 8360 8f3c d668 273e ec7e de3c 21e6 1c3d
000000b0: 0b32 7f3d aca4 3cbc 74ce d93d d4f1 5cbe
000000c0: 2374 6fbd be16 4e3d a1f0 1d3d b2c3 f53d
000000d0: 416f 593d a512 e7bc b3da 0e3e bc3b 45bc
000000e0: 982a 383e 57bb 34be f597 edbd f65d 3f3c
000000f0: 1027 4239 6223 2fbe b0aa 8abd 1726 4ebd

bn_list.0.running_mean f4 [64]
-407.57828 62.836483 412.99185 -41.528336 599.3846 -354.65002 299.31055 295.06137
-336.21445 -477.47803 -671.99634 -182.31653 126.49271 -171.12518 293.84036 -240.76218
382.73856 470.93402 42.091972 -105.5322 -397.71683 242.45412 227.90446 247.50871
594.1932 108.401665 -349.209 -356.42035 643.1806 336.16345 -630.97906 -426.06918
499.99356 458.10507 -227.07748 -102.636024 -438.57745 114.17348 -172.8345 576.4713
-415.0701 -646.7781 -403.817 602.17975 -186.43968 296.90573 241.00623 481.289
245.79088 428.6607 -275.04285 -435.9026 -556.71234 -121.79761 -488.452 -347.5515
105.20253 160.50682 125.95905 -207.3939 -155.495 394.51752 -152.73293 74.561325
00000000: 05ca cbc3 8f58 7b42 f57e ce43 041d 26c2
00000010: 9dd8 1544 3453 b1c3 c0a7 9543 db87 9343
00000020: 731b a8c3 30bd eec3 c4ff 27c4 0851 36c3
00000030: 44fc fc42 0c20 2bc3 91eb 9243 1ec3 70c3
00000040: 895e bf43 8e77 eb43 2e5e 2842 7d10 d3c2
00000050: c1db c6c3 4174 7243 8be7 6343 3b82 7743
00000060: 5d8c 1444 a7cd d842 c19a aec3 ce35 b2c3
00000070: 8fcb 2044 ec14 a843 a9be 1dc4 db08 d5c3
00000080: 2dff f943 730d e543 d613 63c3 a545 cdc2
00000090: ea49 dbc3 d258 e442 a2d5 2cc3 2a1e 1044
000000a0: f988 cfc3 ccb1 21c4 93e8 c9c3 818b 1644
000000b0: 8f70 3ac3 ef73 9443 9801 7143 fea4 f043
000000c0: 77ca 7543 9254 d643 7c85 89c3 88f3 d9c3
000000d0: 972d 0bc4 6098 f3c2 db39 f4c3 98c6 adc3
000000e0: b267 d242 bf81 2043 09eb fb42 d764 4fc3
000000f0: b87e 1bc3 3e42 c543 a1bb 18c3 661f 9542

bn_list.0.running_var f4 [64]
1.5869172e+06 1.7773591e+06 1.1816158e+06 1.8438905e+06 1.6721734e+06 924553.75 1.3596865e+06 647059.9
2.0686264e+06 1.2379886e+06 1.9523258e+06 371423.78 1.4973306e+06 521357.5 1.5242829e+06 1.4452648e+06
1.5191944e+06 2.373813e+06 614746.44 600438.3 1.322863e+06 2.4941428e+06 1.9054956e+06 994793.8
1.8580276e+06 780896.0 1.5581722e+06 960115.8 2.938664e+06 1.3494255e+06 1.6562231e+06 2.0392311e+06
909834.56 1.0689531e+06 2.2332025e+06 932842.44 1.2908982e+06 498026.25 480060.6 1.7455015e+06
1.5003612e+06 1.7520759e+06 940476.9 1.352455e+06 1.8009385e+06 2.0075188e+06 1.6103459e+06 1.5754084e+06
1.2601792e+06 1.8084462e+06 1.02278325e+06 1.621848e+06 3.2957802e+06 569691.94 1.1596939e+06 1.704695e+06
1.2206845e+06 984146.0 1.7190644e+06 620662.44 1.7518434e+06 951032.94 1.2912671e+06 3.56728e+06
00000000: 2ab7 c149 79f6 d849 7e3d 9049 9415 e149
00000010: 6b1f cc49 9cb8 6149 34fa a549 3ef9 1d49
00000020: 9384 fc49 251f 9749 2e52 ee49 f95b b548
00000030: 95c7 b649 b091 fe48 d711 ba49 866c b049
00000040: d372 b949 d4e2 104a a715 1649 6597 1249
00000050: 787b a149 fb3a 184a bd9a e849 9dde 7249
00000060: 5dcf e249 00a6 3e49 e234 be49 3d67 6a49
00000070: a05c 334a 8cb9 a449 f92c ca49 f9ed f849
00000080: a920 5e49 c97c 8249 ca4d 084a a7be 6349
00000090: 9294 9d49 482d f348 9367 ea48 ec12 d549
000000a0: 4a26 b749 5fe0 d549 ce9b 6549 3818 a549
000000b0: 54d7 db49 f60e f549 4f93 c449 834f c049
000000c0: 9ad4 9949 f2c1 dc49 f4b3 7949 c0fa c549
000000d0: 9128 494a bf15 0b49 6f90 8d49 b817 d049
000000e0: 6402 9549 2045 7049 c3d8 d149 6787 1749
000000f0: 1bd9 d549 8f2f 6849 19a0 9d49 c0ba 594a

proj_in.0.weight f4 [64, 10]
-0.0085237445 -0.16375315 0.12798849 -0.09777087 -0.009108454 0.017234998 0.004136516 0.09667799
0.022010224 0.018728247 -0.08567561 0.028293518 0.056232754 0.009965057 -0.024357447 0.15199979
0.04311819 0.07757327 0.057083126 0.05828041 0.024643613 -0.062256407 -0.28216016 0.16593516
-0.01900504 0.06481642 0.13381185 0.05590858 -0.15393482 -0.16735376 0.0625789 0.14093958
0.09451981 0.004934444 0.019964773 0.23426284 0.12390462 0.20414494 0.2131046 0.23650649
-0.24465448 -0.010404407 -0.24303462 -0.29763782 0.12897576 -0.047498267 0.35716406 0.02951223
0.06415231 -0.0049390295 0.033356518 -0.27537805 -0.73597854 0.21281332 -0.0033570835 0.08919499
0.17551836 0.19211121 -0.43648478 -0.4827202 0.13982598 -0.33842486 -0.5997619 0.19417943
-0.08267839 0.1317349 0.07927171 -0.3310362 0.054382693 0.080329366 0.17590855 0.018586278
-0.004009505 -0.0883382 -0.11247223 0.029662523 -0.084885664 0.047880925 0.1559464 0.34609386
0.017390197 -0.083478086 -0.21860273 -0.35853818 -0.18467008 -0.12967212 -0.054889243 -0.18045634
0.048272286 -0.0055178115 -0.0010947726 0.026429381 -0.038011044 -0.109339185 0.44880897 -0.22751282
0.07804607 -0.015789118 0.41429892 0.22185987 0.1261237 0.04272797 0.2209624 0.013575831
-0.011614357 0.24588338 0.04264718 0.14834961 0.2900059 0.2520568 -0.032079495 0.18360929
0.21718629 -0.136815 -0.15012775 -0.10055587 0.37260714 -0.33824065 0.36925477 0.66065025
-0.35676947 0.35030633 0.38276348 0.13307919 0.047251716 0.12249795 0.07774979 -0.21542141
-0.08453425 0.06999246 -0.1272691 -0.1851385 -0.20151934 -0.13030834 0.25641647 0.24066433
-0.039621923 0.0970159 0.015681248 -0.06740818 0.038076162 -0.4363411 -0.67706215 0.6805135
-0.24545522 0.10292919 0.025055813 0.26629934 -0.69693834 -0.71663177 0.06457838 -0.00485113
-0.07957633 -0.17709216 0.05555215 -0.14168768 0.024486585 -0.19099979 0.21899503 0.19577022
0.08213179 -0.42330042 -0.4729261 0.5223573 -0.2754969 0.1748531 0.14478159 0.07116328
-1.0474143 -1.1095089 -0.044179484 0.30168095 0.12089741 -0.06876057 -0.18513647 0.092168435
0.18420321 -0.07755468 0.098156 0.28163415 0.08405672 -0.29725894 -0.21731548 0.074087426
0.05339059 -0.12514938 -0.3566451 0.018786032 -0.265711 -0.39518768 -0.0042880606 -0.08323117
0.48303294 -0.24581848 0.28565153 -0.009622897 0.022274993 -0.046551578 0.31292194 0.4204769
0.04720355 -0.07298217 -0.28623313 0.39305922 -0.050828904 0.10303278 0.03017706 0.03481026
-0.34346616 -0.38584208 -0.14851676 -0.13835622 -0.2527661 -0.25869554 0.21587053 0.16601582
0.4491073 -0.10780896 -0.0020761965 -0.10932877 -0.0096738245 -0.070591375 -0.10696471 0.06754199
-0.16333525 -0.12895861 0.018186718 -0.033339996 -0.18465659 -0.19036648 -0.010026758 0.19770618
-0.03881796 -0.5397128 0.08629662 0.07743591 -0.10163323 0.012027901 0.036878247 0.1833259
-0.015682317 0.12805782 0.20672725 -0.03423157 -0.039479997 -0.14733818 -0.19251771 -0.3192776
0.2895009 0.13804395 0.06726029 -0.38986805 -0.9588446 0.6105122 -0.23502107 0.26157218
00000000: 2da7 0bbc e8ae 27be 6a0f 033e 183c c8bd
00000010: a03b 15bc 6930 8d3c 9c8b 873b 1cff c53d
00000020: c94e b43c fb6b 993c b276 afbd cfc7 e73c
00000030: 5154 663d 7a44 233c 4589 c7bc d5a5 1b3e
00000040: b39c 303d bcde 9e3d ffcf 693d 70b7 6e3d
00000050: 67e1 c93c 9300 7fbd 4c77 90be e8ea 293e
00000060: 75b0 9bbc 79be 843d f905 093e 6500 653d
00000070: 17a1 1dbe c95e 2bbe 5e29 803d 7752 103e
00000080: 9a93 c13d 1eb1 a13b 2a8d a33c 99e2 6f3e
00000090: b5c1 fd3d 5f0b 513e 1838 5a3e c22e 723e
000000a0: b486 7abe 3f77 2abc 11de 78be fc63 98be
000000b0: 3912 043e 8b8d 42bd 35de b63e a2c3 f13c
000000c0: 4962 833d 95d7 a1bb d8a0 083d 5afe 8cbe
000000d0: 1769 3cbf bceb 593e 8402 5cbb ddab b63d
000000e0: 16bb 333e cdb8 443e ef7a dfbe 1a27 f7be
000000f0: 8b2e 0f3e 0646 adbe ff89 19bf f9d6 463e
00000100: 4a53 a9bd 83e5 063e 3559 a23d 947d a9be
00000110: 63c0 5e3d b983 a43d 5f21 343e 4042 983c
00000120: 2a62 83bb a8ea b4bd d757 e6bd d2fe f23c
00000130: 89d8 adbd ca1e 443d 6ab0 1f3e 3733 b13e
00000140: e375 8e3c 8ff6 aabd 65d9 5fbe 5192 b7be
00000150: 271a 3dbe c5c8 04be 8bd3 60bd 8cc9 38be
00000160: 29b9 453d c2ce b4bb 797e 8fba 6e82 d83c
00000170: 78b1 1bbd 39ed dfbd 4aca e53e 1ff9 68be
00000180: 9ed6 9f3d 2e58 81bc fd1e d43e 3c2f 633e
00000190: 9226 013e 8603 2f3d f843 623e 2a6d 5e3c
000001a0: 254a 3ebc dac8 7b3e cfae 2e3d f6e8 173e
000001b0: a77b 943e 970d 813e ca65 03bd 1304 3c3e
000001c0: 1566 5e3e 3b19 0cbe 17bb 19be 3cf0 cdbd
000001d0: 5dc6 be3e e12d adbe f60e bd3e 6020 293f
000001e0: 7daa b6be 5a5b b33e 93f9 c33e e945 083e
000001f0: 048b 413d 35e0 fa3d 483b 9f3d 6e97 5cbe
00000200: 4b20 adbd 3558 8f3d d552 02be f294 3dbe
00000210: 165b 4ebe 8d6f 05be 0549 833e b670 763e
00000220: 994a 22bd 46b0 c63d f675 803c 4d0d 8abd
00000230: c0f5 1b3d 1a68 dfbe f253 2dbf 2236 2e3f
00000240: 9d58 7bbe 8acc d23d d941 cd3c 6358 883e
00000250: 8d6a 32bf 2e75 37bf ab41 843d 3af6 9ebb
00000260: eaf8 a2bd a657 35be a78a 633d 9316 11be
00000270: 1798 c83c 7395 43be 3c40 603e fd77 483e
00000280: b634 a83d d5ba d8be 5f23 f2be 35b9 053f
00000290: ee0d 8dbe b10c 333e a041 143e 0ebe 913d
000002a0: ac11 86bf 6304 8ebf 8cf5 34bd ed75 9a3e
000002b0: 1099 f73d 57d2 8cbd 6a94 3dbe cec2 bc3d
000002c0: c49f 3c3e fdd4 9ebd 0306 c93d 5a32 903e
000002d0: ee25 ac3d 5332 98be f387 5ebe 26bb 973d
000002e0: 17b0 5a3d 2927 00be 309a b6be 2ae5 993c
000002f0: 460b 88be 0a56 cabe dc82 8cbb 1b75 aabd
00000300: 1850 f73e d7b7 7bbe eb40 923e 5ba9 1dbc
00000310: 0c7a b63c deac 3ebd 4e37 a03e c048 d73e
00000320: 8258 413d ad77 95bd 268d 92be 0f3f c93e
00000330: f831 50bd da02 d33d e235 f73c 3495 0e3d
00000340: ccda afbe 188d c5be c714 18be 41ad 0dbe
00000350: 8f6a 81be be73 84be 2a0d 5d3e 0d00 2a3e
00000360: 64f1 e53e f2ca dcbd cc10 08bb c3e7 dfbd
00000370: f67e 1ebc 3692 90bd 5010 dbbd 7453 8a3d
00000380: 5b41 27be ba0d 04be 50fc 943c 858f 08bd
00000390: 9e16 3dbe 6eef 42be 4547 24bc 7d73 4a3e
000003a0: 95ff 1ebd 9e2a 0abf 48bc b03d b896 9e3d
000003b0: 1525 d0bd ac10 453c a50d 173d c9b9 3b3e
000003c0: 3478 80bc 9721 033e 4fb0 533e 6736 0cbd
000003d0: c7b5 21bd d2df 16be 5d23 45be 5b78 a3be
000003e0: 7639 943e 655b 0d3e c3bf 893d c99c c7be
000003f0: d776 75bf 874a 1c3f 5da9 70be caec 853e
