model-weights/yelp.pth (torch, 455335 bytes, 48 tensors)

gnn_list.0.proj_edges.net_rsr.0.weight f4 [128, 128]
-0.06674465 -0.045280043 -0.08875588 0.16735429 0.09745796 -0.19524238 -0.06850261 0.035026412
-0.056528144 0.059723377 -0.03572927 -0.015087607 0.027105452 0.090343475 -0.037439153 -0.08048546
0.0004729739 -0.013046626 -0.07975768 0.055110563 0.060627595 -0.0014251705 -0.17184469 -0.16585195
-0.04754076 0.107370675 -0.19014962 0.16423073 0.013227036 -0.18885863 -0.22731966 0.19944295
-0.026904423 -0.047505494 0.011728331 -0.042428333 -0.036443125 0.10279848 0.061261445 0.0093999915
0.016146785 0.047859397 0.15829624 -0.11154499 -0.09064096 0.2295032 0.10719089 -0.37876847
-0.10489852 -0.15161265 -0.12585637 -0.16330244 -0.07823722 0.07953048 0.0018533012 -0.018538134
0.06516672 -0.11117992 -0.049330693 0.2584863 -0.069829725 -0.012794424 -0.057305343 0.10683915
0.054587044 0.22660755 0.07870297 0.04617051 0.094693884 0.020833997 0.09382763 -0.09132916
0.0080022495 0.112637945 -0.06117632 -0.07909015 0.11039448 -0.061203577 0.09383808 0.028557902
-0.06909398 0.22185716 -0.10133845 0.06104054 0.21642113 -0.15627912 0.15397918 -0.025219807
-0.12298973 0.086927995 -0.048412025 -0.0015933118 -0.04897139 -0.08827684 -0.17177244 -0.09261783
-0.12184922 0.053841956 0.034701474 -0.044499263 -0.0606299 -0.031681243 -0.2275998 -0.059445158
0.08213682 0.07983423 0.04301997 -0.103253275 0.10436065 -0.12737244 -0.12229241 -0.0056992285
-0.07408761 -0.07752845 0.0748217 -0.014290508 0.11342391 0.14702764 -0.20190923 -0.099656604
0.11574622 0.05779779 -0.037560906 -0.07879253 0.018944344 0.0687565 -0.14477964 -0.029269807
-0.039531987 0.009892289 -0.024720179 -0.16012612 -0.04500071 0.16031665 0.1762193 0.073813535
-0.1637474 -0.094073385 -0.10785449 -0.059118774 0.0242459 0.07330594 -0.0667436 -0.07801704
0.051007144 -0.059867337 -0.0059708823 -0.032466438 0.20095663 -0.13433462 -0.08739281 0.18837775
-0.08585641 -0.09392041 -0.04899259 0.027396819 0.05695411 -0.11349788 0.06071139 -0.005788102
0.07606348 0.061555732 0.04494864 -0.12407966 -0.13692784 0.07373818 -0.14283435 0.15056252
-0.049403764 0.028754128 -0.050119113 -0.018919082 0.118148275 0.035125468 0.01235452 0.13819952
0.1491758 0.05162026 -0.11723271 0.061647974 0.057015575 0.18099965 0.0126829045 -0.10110845
0.08458728 -0.09350856 -0.016328754 9.935352e-05 -0.08872604 0.0538774 -0.15803237 0.019257186
0.02993284 0.062331844 0.06498823 -0.08015749 -0.051710907 -0.019220134 -0.0708345 0.058299508
-0.07020473 -0.05417445 -0.009880198 0.11347717 -0.07598836 0.007475405 -0.14426742 0.06288812
0.030174796 0.18199562 -0.19094549 0.049341757 0.0067561474 -0.041501336 -0.025991276 -0.1596452
-0.06312524 0.059028666 -0.042322308 0.13614674 0.047063053 0.14585347 0.046960227 -0.04597979
-0.00017664494 -0.00045988886 0.06355291 -0.07746507 0.0845301 0.14227068 0.019829495 0.11867003
-0.13576993 -0.09200739 -0.036306247 -0.03333159 0.060487933 0.0017488737 -0.027048305 -0.060334463
0.05293108 0.15084067 -0.026755905 -0.02019802 0.08446451 -0.21489167 -0.3187294 -0.11206271
-0.09187255 0.16346598 0.2575189 0.14267966 -0.17031586 -0.05854192 -0.05585289 -0.0148696415
00000000: 6bb1 88bd 9177 39bd a5c5 b5bd ec5e 2b3e
00000010: 0a98 c73d 9eed 47be 194b 8cbd db77 0f3d
00000020: 0e8a 67bd 80a0 743d db58 12bd 0332 77bc
00000030: 410c de3c 0006 b93d cc59 19bd 90d5 a4bd
00000040: 7bf9 f739 84c1 55bc ff57 a3bd 9dbb 613d
00000050: a454 783d c9cc baba 0ef8 2fbe 18d5 29be
00000060: 1aba 42bd 28e5 db3d 95b6 42be 1a2c 283e
00000070: 36b6 583c 2864 41be 7cc6 68be c63a 4c3e
00000080: aa66 dcbc 1f95 42bd 3028 403c 55c9 2dbd
00000090: 6345 15bd 0288 d23d 48ed 7a3d 6c02 1a3c
000000a0: 4346 843c 3708 443d 6918 223e b371 e4bd
000000b0: f8a1 b9bd e302 6b3e e686 db3d f1ed c1be
000000c0: 09d5 d6bd 5940 1bbe 7ee0 00be c138 27be
000000d0: d63a a0bd e0e0 a23d 78ea f23a 49dd 97bc
000000e0: 2176 853d 4cb2 e3bd fb0e 4abd 5158 843e
000000f0: e302 8fbd b49f 51bc 02b9 6abd 7cce da3d
00000100: aa96 5f3d cf0b 683e 062f a13d 4a1d 3d3d
00000110: deee c13d 0fac aa3c b328 c03d c80a bbbd
00000120: de1b 033c b9ae e63d 0594 7abd 04fa a1bd
00000130: 8016 e23d 9ab0 7abd 2e2e c03d 43f2 e93c
00000140: 2581 8dbd 862e 633e 898a cfbd a505 7a3d
00000150: 809d 5d3e a207 20be b8ac 1d3e c599 cebc
00000160: 0ae2 fbbd 4e07 b23d b04b 46bd acd6 d0ba
00000170: 3996 48bd 7dca b4bd 1de5 2fbe 6bae bdbd
00000180: 158c f9bd 6289 5c3d 2223 0e3d dc44 36bd
00000190: 0f57 78bd 31c4 01bd ec0f 69be c47c 73bd
000001a0: 5937 a83d 2180 a33d b535 303d 7476 d3bd
000001b0: 09bb d53d ec6d 02be 7174 fabd 98c0 babb
000001c0: 3fbb 97bd 3cc7 9ebd 1f3c 993d bc22 6abc
000001d0: cc4a e83d 6a8e 163e 4bc1 4ebe c318 ccbd
000001e0: 5b0c ed3d 60bd 6c3d 77d9 19bd fa5d a1bd
000001f0: 2b31 9b3c 35d0 8c3d 1d41 14be 3cc7 efbc
00000200: 4bec 21bd 4413 223c f981 cabc 1af8 23be
00000210: aa52 38bd 0c2a 243e d572 343e 8d2b 973d
00000220: 66ad 27be 8ca9 c0bd d1e2 dcbd 8726 72bd
00000230: 569f c63c 6d21 963d deb0 88bd 66c7 9fbd
00000240: deec 503d 7437 75bd 64a7 c3bb 87fb 04bd
00000250: 93c7 4d3e 048f 09be 00fb b2bd 19e6 403e
00000260: 7cd5 afbd 5859 c0bd 74ac 48bd 4b6f e03c
00000270: b648 693d 9471 e8bd 82ac 783d 1eaa bdbb
00000280: 2bc7 9b3d dd21 7c3d 111c 383d 7a1d febd
00000290: d036 0cbe 0b04 973d 2b43 12be 102d 1a3e
000002a0: 9a5b 4abd c78d eb3c b349 4dbd 31fc 9abc
000002b0: b9f7 f13d b9df 0f3d 9d6a 4a3c 2d84 0d3e
000002c0: 8ac1 183e c46f 533d b417 f0bd 9682 7c3d
000002d0: 2a89 693d f957 393e f5cb 4f3c f211 cfbd
000002e0: 193c ad3d 6a81 bfbd e1c3 85bc 045c d038
000002f0: 00b6 b5bd 8cae 5c3d 3dd3 21be 3fc1 9d3c
00000300: b735 f53c ad4f 7f3d 8d18 853d 9c29 a4bd
00000310: d1ce 53bd 8b73 9dbc ae11 91bd 77cb 6e3d
00000320: 7fc7 8fbd 07e6 5dbd 8ee0 21bc b866 e83d
00000330: c99f 9bbd 3ef4 f43b d7ba 13be 7dcb 803d
00000340: 2231 f73c 0f5d 3a3e 3787 43be 951a 4a3d
00000350: ac62 dd3b 4efd 29bd a8eb d4bc 087a 23be
00000360: ce47 81bd 0bc8 713d 285a 2dbd 0d6a 0b3e
00000370: 30c5 403d 9d5a 153e 5e59 403d 4e55 3cbd
00000380: c439 39b9 3d1d f1b9 0728 823d 02a6 9ebd
00000390: 1e1e ad3d 68af 113e 7771 a23c 4609 f33d
000003a0: 4607 0bbe 5f6e bcbd dcb5 14bd b586 08bd
000003b0: 32c2 773d 773a e53a 6894 ddbc 4521 77bd
000003c0: 43ce 583d fa75 1a3e 332f dbbc 5176 a5bc
000003d0: bbfb ac3d 900c 5cbe 8030 a3be 2281 e5bd
000003e0: ad27 bcbd a063 273e 84d9 833e 9e1a 123e
000003f0: 4867 2ebe a7c9 6fbd 00c6 64bd cc9f 73bc

gnn_list.0.proj_edges.net_rsr.0.bias f4 [128]
-0.004999087 -0.02628034 -0.022334944 0.091837466 -0.0030870368 -0.023716863 0.0471464 -0.06956335
0.03362055 -0.012777299 -0.03309253 -0.04400645 0.02439646 0.024255374 -0.032006204 0.059562672
-0.039583478 -0.028913623 0.0032358936 0.046048544 0.047619533 0.019547403 0.021130133 0.020835327
0.04223326 -0.03201378 0.01821918 0.011609791 -0.031733297 -0.016001461 -0.048640892 0.00517641
-0.0003952952 0.015939938 -0.0077548255 0.061234605 -0.001817031 -0.017890554 -0.007690731 -0.074753225
-0.014054073 -0.0042220172 0.06138523 0.015018613 0.020571316 -0.049763683 -0.017872073 -0.0007118804
0.019582547 0.005322911 0.050651196 0.019875396 0.008565832 -0.02441046 -0.011847256 -0.02573829
-0.035882287 0.003916278 0.033458192 0.034862537 0.01314814 0.062882826 0.0013536664 -0.026487723
0.0124952 -0.00736867 -0.024172083 -0.04531174 0.029487932 0.018626742 -0.011677461 -0.051116876
-0.030870298 0.0567948 -0.035527956 -0.0022044983 -0.014730253 0.04875764 -0.010965257 -0.011124257
-5.0270184e-05 0.0008552014 -0.00993673 0.035643056 0.06701359 0.0261484 -0.004319148 0.011915046
-0.02254251 -0.022939904 -0.07118419 -0.030193672 -0.026324423 -0.02148857 0.03220487 0.027354287
0.011989034 0.033137277 0.005492596 -0.014058452 0.03726642 0.05664088 0.0008533788 -0.0014400777
0.062238954 -0.00037690258 0.079677045 0.0036133656 0.045140367 -0.033634394 -0.013083646 0.0061253007
-0.019283662 -0.050121713 -0.06155001 -0.009482797 0.031647585 -0.06845656 -0.043857694 -0.0104005225
-0.014730673 0.03549583 0.010614227 0.024534924 -0.025805462 -0.042367104 -0.0056400676 0.034142405
00000000: 62cf a3bb de49 d7bc c6f7 b6bc 4815 bc3d
00000010: e24f 4abb de49 c2bc 951c 413d 3b77 8ebd
00000020: b4b5 093d e057 51bc 088c 07bd 1b40 34bd
00000030: 16db c73c 35b3 c63c f018 03bd fdf7 733d
00000040: 4922 22bd 43dc ecbc 4911 543b 669d 3c3d
00000050: b30c 433d e021 a03c 1a19 ad3c d9ae aa3c
00000060: c8fc 2c3d e220 03bd 6440 953c fe36 3e3c
00000070: c6fa 01bd 7f15 83bc ac3b 47bd e09e a93b
00000080: a03f cfb9 7994 823c 311c febb 23d1 7a3d
00000090: 7129 eeba 368f 92bc 8702 fcbb 3818 99bd
000000a0: 0e43 66bc d958 8abb 146f 7b3d a110 763c
000000b0: 2d85 a83c 01d5 4bbd 7468 92bc 7c9d 3aba
000000c0: 946b a03c d06b ae3b a177 4f3d bad1 a23c
000000d0: b457 0c3c 72f8 c7bc fe1a 42bc 1bd9 d2bc
000000e0: 4ef9 12bd 1f54 803b 750b 093d 05cc 0e3d
000000f0: 4c6b 573c b6c8 803d 826d b13a c8fc d8bc
00000100: abb8 4c3c e274 f1bb 8804 c6bc ce98 39bd
00000110: ad90 f13c 1c97 983c d252 3fbc ee5f 51bd
00000120: b5e3 fcbc aaa1 683d c385 11bd 5879 10bb
00000130: 2957 71bc 17b6 473d 9fa7 33bc 8442 36bc
00000140: 33d9 52b8 982f 603a abcd 22bc 74fe 113d
00000150: 6c3e 893d 2b35 d63c a487 8dbb 5337 433c
00000160: 12ab b8bc 77ec bbbc 04c9 91bd b858 f7bc
00000170: 51a6 d7bc cc08 b0bc 41e9 033d 1916 e03c
00000180: a76d 443c f4ba 073d 3cfb b33b 6c55 66bc
00000190: aca4 183d 4400 683d 48b5 5f3a fdc0 bcba
000001a0: 46ee 7e3d 029b c5b9 b82d a33d 37ce 6c3b
000001b0: 1be5 383d 38c4 09bd ca5c 56bc bfb6 c83b
000001c0: c5f8 9dbc 6d4c 4dbd dd1b 7cbd bc5d 1bbc
000001d0: e6a0 013d f432 8cbd 20a4 33bd f466 2abc
000001e0: ec58 71bc 1364 113d 4be7 2d3c 77fd c83c
000001f0: fa65 d3bc 2189 2dbd 51d0 b8bb e8d8 0b3d

gnn_list.0.proj_edges.net_rsr.3.weight f4 [128]
0.99920446 1.0234039 1.012089 1.0868727 0.9783072 1.1011561 1.0048229 0.9418431
0.9744513 1.0591328 0.97173864 0.90047973 1.0615468 1.0126159 0.9954488 1.0033224
0.9593459 1.0148612 0.96107525 0.98546416 1.0786396 0.9899525 1.0163472 0.97218573
1.0308429 0.98152006 1.0036157 1.0394509 1.0195662 1.0376499 0.930866 0.99736655
0.98385644 1.0512277 0.9712711 0.955841 1.0578498 0.9417251 0.95191455 0.9719482
1.010383 0.9506553 1.0808651 0.9444638 0.94437885 0.97809315 0.934978 1.028848
0.98812604 0.9286705 0.95459604 0.9852504 0.9235921 0.92845637 1.0373949 1.0131171
0.9424889 0.9785562 0.99509126 1.0148691 0.99976057 1.0763974 1.0197352 1.0479997
0.9636141 0.96310914 0.9645969 1.014785 0.9785524 0.99186707 1.0164957 0.97887915
0.9231714 0.9493071 0.95138264 0.98794585 0.912135 1.0039874 1.0320693 0.9055551
0.9951041 0.9590442 0.92632353 0.9362457 0.9984237 1.0307708 0.9676921 0.95895284
1.0235828 1.0301496 0.9751008 0.9535871 0.9747172 0.98532623 0.9558179 0.9550541
0.9037188 1.0377097 0.98390347 0.94296044 1.0180459 1.0085108 0.98170507 0.9222022
0.99944794 0.99685186 0.9824201 1.0303891 0.98515075 1.0119605 0.98318166 0.974834
0.9274742 0.9630966 0.9602359 0.99665993 1.0802758 0.97828424 0.9960359 1.0134896
1.041383 1.0044682 1.0744029 0.974045 1.018648 1.0218118 0.926808 1.0596088
00000000: ddcb 7f3f e6fe 823f 228c 813f a51e 8b3f
00000010: 5772 7a3f aff2 8c3f 099e 803f a11c 713f
00000020: a475 793f aa91 873f ddc3 783f d785 663f
00000030: c4e0 873f 669d 813f bcd5 7e3f de6c 803f
00000040: b197 753f f9e6 813f 0709 763f 6147 7c3f
00000050: dd10 8a3f 876d 7d3f aa17 823f 2ae1 783f
00000060: a9f2 833f e644 7b3f 7b76 803f ba0c 853f
00000070: 2581 823f b6d1 843f 3c4d 6e3f 6a53 7f3f
00000080: 04de 7b3f a18e 863f 39a5 783f ffb1 743f
00000090: 9f67 873f e514 713f acb0 733f 99d1 783f
000000a0: 3b54 813f 255e 733f ca59 8a3f 61c8 713f
000000b0: d0c2 713f 5064 7a3f b85a 6f3f 4bb1 833f
000000c0: d4f5 7c3f 5abd 6d3f 6860 743f 5f39 7c3f
000000d0: 8870 6c3f 51af 6d3f 5bc9 843f d2ad 813f
000000e0: f446 713f a982 7a3f 4dbe 7e3f 3be7 813f
000000f0: 4ff0 7f3f 64c7 893f af86 823f db24 863f
00000100: 6aaf 763f 528e 763f d3ef 763f 7ae4 813f
00000110: 6982 7a3f 00eb 7d3f 881c 823f d397 7a3f
00000120: f654 6c3f ca05 733f d08d 733f 05ea 7c3f
00000130: ae81 693f a982 803f d91a 843f 76d2 673f
00000140: 24bf 7e3f ec83 753f 8a23 6d3f ccad 6f3f
00000150: b298 7f3f 4cf0 833f abba 773f ef7d 753f
00000160: c304 833f f1db 833f 35a0 793f 491e 743f
00000170: 1187 793f 573e 7c3f 7bb0 743f 6d7e 743f
00000180: 1e5a 673f acd3 843f 19e1 7b3f db65 713f
00000190: 544f 823f e216 813f 0651 7b3f 7215 6c3f
000001a0: d2db 7f3f af31 7f3f e27f 7b3f cae3 833f
000001b0: d732 7c3f ec87 813f cbb1 7b3f b98e 793f
000001c0: f36e 6d3f 808d 763f 05d2 753f 1b25 7f3f
000001d0: 7a46 8a3f d670 7a3f 35fc 7e3f 07ba 813f
000001e0: 0a4c 853f 6a92 803f 0986 893f 035b 793f
000001f0: 0f63 823f bbca 823f 4a43 6d3f 43a1 873f

gnn_list.0.proj_edges.net_rsr.3.bias f4 [128]
-0.0077978177 -0.025694972 -0.012504802 0.0711059 -0.008464428 -0.06400973 0.017209139 -0.050899766
0.06289589 -0.043630593 -0.0061169886 0.019079199 0.030306427 0.03154852 -0.023037152 0.023068964
0.011866101 -0.053571206 0.008678813 0.041627083 0.029726107 0.044081997 0.00811588 0.033678014
0.0036148806 -0.018980676 -0.009585781 -0.021725502 -0.03935431 -0.08601683 -0.038722385 -0.017686084
-5.9814894e-05 -0.011652912 0.01624908 0.078503154 -0.022459328 -0.026644725 0.025988292 -0.036937445
0.0009025407 0.0023690148 0.031696565 -0.0056448216 0.043004975 -0.07266713 -0.016475875 0.00018242386
-0.0066663553 0.044210505 0.039943796 0.014582323 0.051863674 0.035441812 -0.04359717 -0.0374942
-0.045438234 -0.003207378 0.008106731 0.031243118 0.039308775 0.031881064 -0.011212739 -0.0135478405
0.045648623 -0.000408278 -0.03450623 -0.023317074 0.057587527 0.022666136 -0.05217346 -0.07058111
0.0020025033 0.038755544 -0.036313668 0.011749264 0.023943046 0.030710874 -0.016214978 0.0726393
0.01978098 0.013036382 0.020183062 0.033008315 0.029745271 -0.018795786 0.040492963 0.027511066
-0.0061526727 -0.03000634 -0.027992679 -0.0019264031 -0.040179025 -0.04572603 0.06284469 0.055570163
0.027213383 0.011072198 0.020544857 0.027793717 0.028795442 0.066712864 -0.020944186 0.009908118
0.052671522 0.0070271655 0.05160857 -0.017496921 0.048093922 -0.0071896007 0.0027744106 0.0344558
-0.002963972 -0.0015080887 -0.04778461 0.004206838 -0.046336602 -0.053300507 -0.051276736 -0.010813443
-0.041939255 0.05049197 -0.059055626 -0.008207482 -0.05869551 -0.059074827 0.046332244 0.03363854
00000000: d684 ffbb 437e d2bc f1e0 4cbc f89f 913d
00000010: 62ae 0abc 8917 83bd 2efa 8c3c 467c 50bd
00000020: 8fcf 803d feb5 32bd 0571 c8bb fb4b 9c3c
00000030: 2f45 f83c 0539 013d 69b8 bcbc 20fb bc3c
00000040: 096a 423c 7b6d 5bbd 9531 0e3c 2981 2a3d
00000050: 2a84 f33c 538f 343d 78f8 043c f5f1 093d
00000060: a2e7 6c3b 5d7d 9bbc ae0d 1dbc aef9 b1bc
00000070: fc31 21bd 9729 b0bd 5d9b 1ebd 68e2 90bc
00000080: c1e1 7ab8 dbeb 3ebc ca1c 853c 43c6 a03d
00000090: a0fc b7bc 0a46 dabc 66e5 d43c b84b 17bd
000000a0: 7b98 6c3a 7941 1b3b 42d4 013d 32f8 b8bb
000000b0: fc25 303d 81d2 94bd 6af8 86bc 0849 3f39
000000c0: 7171 dabb 1316 353d 1b9c 233d b2ea 6e3c
000000d0: 016f 543d 6f2b 113d f292 32bd 8593 19bd
000000e0: 711d 3abd e032 52bb 18d2 043c 91f1 ff3c
000000f0: 3d02 213d b895 023d a3b5 37bc c3f7 5dbc
00000100: 0dfa 3a3d 250e d6b9 6856 0dbd 7303 bfbc
00000110: e6e0 6b3d 55ae b93c d7b3 55bd d48c 90bd
00000120: 6e3c 033b 22be 1e3d a4bd 14bd fc7f 403c
00000130: 3524 c43c 5f95 fb3c 46d5 84bc eac3 943d
00000140: b90b a23c 8d96 553c f356 a53c ba33 073d
00000150: 5bac f33c 9ff9 99bc f3db 253d e35e e13c
00000160: 5c9c c9bb dbcf f5bc e750 e5bc 5d7f fcba
00000170: c392 24bd 384b 3bbd b8b4 803d 8a9d 633d
00000180: 9aee de3c 2a68 353c b04d a83c a6af e33c
00000190: 6be4 eb3c c1a0 883d 2493 abbc a955 223c
000001a0: 18be 573d 2344 e63b 8263 533d b455 8fbc
000001b0: 22fe 443d be96 ebbb e3d2 353b 8621 0d3d
000001c0: 333f 42bb 0fab c5ba ccb9 43bd 84d9 893b
000001d0: 73cb 3dbd a251 5abd 8e07 52bd de2a 31bc
000001e0: 7fc8 2bbd abd0 4e3d 50e4 71bd ad78 06bc
000001f0: b46a 70bd 72f8 71bd e1c6 3d3d 91c8 093d

gnn_list.0.proj_edges.net_rsr.4.weight f4 [64, 128]
0.26381707 0.08704857 -0.13235357 -0.05072419 -0.14166088 0.014061689 0.061388448 0.11086931
-0.017114919 -0.030865882 -0.01625857 0.09063625 0.12432194 0.09608761 0.050559647 -0.041750215
0.020940991 -0.015646199 -0.03458195 0.07178574 -0.017798638 0.018754175 -0.052122954 0.114462726
0.07271312 0.12842649 0.13170664 0.10341712 0.15322196 0.011846597 0.0861531 -0.021800574
-0.12365327 -0.05439598 0.058495656 0.13337414 0.2587804 -0.04805526 0.035397667 0.07668907
0.14698547 -0.049983203 0.08365834 0.05725843 0.13156214 -0.13109681 -0.10544572 0.06437842
0.07902993 -0.16292706 -0.052402105 0.05564327 0.00414377 -0.10486796 0.24058895 -0.046916857
-0.0012252197 -0.0630138 -0.07823885 -0.098406896 0.056971 -0.05748698 -0.24538288 0.09886294
-0.05834096 -0.18154053 -0.048094835 0.013234531 0.08665998 -0.25310776 0.20487691 0.15675788
0.07108228 -0.13545454 -0.087426774 -0.080706246 0.03914794 0.16091596 0.07552709 0.010567554
-0.037590742 0.014385656 0.01987424 0.013878266 -0.13592781 -0.06103876 -0.061664913 0.08112863
-0.016793916 -0.021581303 0.026241923 -0.099792704 -0.12338339 0.082499795 0.053742714 -0.037708517
-0.0129131945 0.018090257 -0.11335534 0.0280802 0.06555101 -0.17246336 0.04207697 -0.017090583
-0.16975407 0.22234006 -0.016663615 -0.0029309692 0.12806106 -0.2797728 -0.19096237 -0.0007463863
-0.0065775258 0.077438004 0.046587493 0.13239573 -0.082168885 0.16266724 0.13752262 -0.12353682
-0.113731116 -0.08158263 0.033523522 -0.12924519 0.036492053 0.039538093 -0.15025073 -0.029410847
-0.048281565 0.023040498 -0.12353315 -0.04578356 -0.06327471 0.23421231 -0.08166989 -0.04073762
0.019609101 0.10438748 -0.037816085 -0.047033034 -0.18398117 -0.123354286 0.08202062 0.005050911
0.07431614 -0.09591389 0.07900452 -0.0099532325 -0.014092014 -0.10272305 0.028451063 0.16302563
-0.10617307 -0.17865922 0.036770698 0.09747747 0.05775132 0.071159534 0.08671562 0.09864358
-0.086714946 -0.1168027 -0.04344335 0.058608126 -0.24054459 -0.06398126 0.021552525 0.11979415
-0.033010554 0.066374525 -0.14240539 0.15862404 0.084726736 0.100827724 -0.10765506 -0.12353075
-0.006969946 -0.057386927 0.05169153 0.23568773 -0.0042297672 -0.05205347 -0.12446495 -0.03120299
0.043563426 -0.23851068 0.041064743 -0.015320702 -0.10006335 0.0631986 -0.053600788 0.03026017
0.012630264 -0.053978175 0.21191181 0.05686836 -0.16178967 0.18775672 0.08946845 -0.2290045
0.05134316 0.0025699795 0.031272803 0.046225637 -0.010009915 -0.093997374 -0.023023125 0.07360679
-0.09743394 0.10555756 0.079779014 0.17728364 -0.083608195 -0.015395781 0.056702796 0.13179077
0.078073665 0.07613367 0.0027618064 0.20370747 0.12071303 0.015144659 0.14073145 -0.22298397
-0.091909654 -0.101814814 -0.043116603 -0.23659407 -0.01295566 0.016852178 -0.010772375 -0.08758332
0.0060154544 0.07890231 -0.03646979 -0.07983887 -0.16955744 0.08874887 0.07830727 0.15885885
0.14789446 0.12952465 0.0417047 -0.14295836 0.08230013 0.106850006 0.17413005 0.07900239
-0.012462487 -0.00033352734 0.09311131 -0.014829824 -0.00017679343 0.17160666 0.09708963 -0.080796756
00000000: 0813 873e 8546 b23d b287 07be 2bc4 4fbd
00000010: 8d0f 11be 0063 663c 7472 7b3d 730f e33d
00000020: 9634 8cbc 72da fcbc b130 85bc 809f b93d
00000030: 809c fe3d 95c9 c43d a217 4f3d 4602 2bbd
00000040: 718c ab3c 752c 80bc cea5 0dbd 6704 933d
00000050: 73ce 91bc 5ba2 993c e17e 55bd 6f6b ea3d
00000060: 9eea 943d 3c82 033e 1bde 063e 5bcc d33d
00000070: 38e6 1c3e 3b18 423c 0971 b03d 1e97 b2bc
00000080: ed3d fdbd 52ce 5ebd 2499 6f3d 3b93 083e
00000090: dd7e 843e 98d5 44bd 25fd 103d 290f 9d3d
000000a0: 5c83 163e 30bb 4cbd 1055 ab3d d187 6a3d
000000b0: 3ab8 063e 3e3e 06be edf3 d7bd d5d8 833d
000000c0: 72da a13d 5ad6 26be 97a3 56bd 33ea 633d
000000d0: 76c8 873b 03c5 d6bd f35c 763e e42b 40bd
000000e0: 8d97 a0ba 610d 81bd b13b a0bd 8e89 c9bd
000000f0: 6c5a 693d 7877 6bbd a645 7bbe a778 ca3d
00000100: eef6 6ebd c3e5 39be 17ff 44bd a5d5 583c
00000110: ca7a b13d 5797 81be 41cb 513e 2385 203e
00000120: 9693 913d 98b4 0abe cf0c b3bd 5149 a5bd
00000130: 9759 203d 27c7 243e f2ad 9a3d 8923 2d3c
00000140: c0f8 19bd d1b1 6b3c 4dcf a23c ab61 633c
00000150: a930 0bbe c703 7abd 5994 7cbd c426 a63d
00000160: 6593 89bc 46cb b0bc 4df9 d63c 1e60 ccbd
00000170: 6eb0 fcbd a7f5 a83d 5221 5c3d 3f74 1abd
00000180: dd91 53bc 0532 943c d826 e8bd 7308 e63c
00000190: 9c3f 863d 3c9a 30be e758 2c3d 8d01 8cbc
000001a0: 03d4 2dbe 1dad 633e 2282 88bc 8115 40bb
000001b0: 7022 033e 613e 8fbe a48b 43be 23a9 43ba
000001c0: 4988 d7bb d197 9e3d 87d2 3e3d bf92 073e
000001d0: 2948 a8bd 3e92 263e bbd2 0c3e df00 fdbd
000001e0: dceb e8bd cb14 a7bd f64f 093d da58 04be
000001f0: b178 153d b2f2 213d 54db 19be 04ef f0bc
00000200: e4c2 45bd 6dbf bc3c f3fe fcbd 8b87 3bbd
00000210: 2c96 81bd 5ad5 6f3e 8b42 a7bd 7edc 26bd
00000220: 44a3 a03c 1ac9 d53d 0ae5 1abd b6a5 40bd
00000230: 8f65 3cbe 2ca1 fcbd 6dfa a73d 1d82 a53b
00000240: 0f33 983d 806e c4bd 1fcd a13d e212 23bc
00000250: 31e2 66bc 7660 d2bd 3412 e93c 31f0 263e
00000260: 4471 d9bd 71f2 36be df9c 163d 45a2 c73d
00000270: a68c 6c3d 17bc 913d f597 b13d a505 ca3d
00000280: 9b97 b1bd 4136 efbd a7f1 31bd 130f 703d
00000290: 5251 76be 9b08 83bd ec8e b03c a356 f53d
000002a0: 1336 07bd 5eef 873d b8d2 11be 576e 223e
000002b0: 3685 ad3d c47e ce3d 427a dcbd b1fd fcbd
000002c0: 2564 e4bb 8e0e 6bbd 7fba 533d 2058 713e
000002d0: dc99 8abb 0536 55bd 7be7 febd 6a9d ffbc
000002e0: 906f 323d 253c 74be 8133 283d af03 7bbc
000002f0: 03ee ccbd 456e 813d 808c 5bbd 2de4 f73c
00000300: 2bef 4e3c 3818 5dbd 69ff 583e ccee 683d
00000310: 31ac 25be 4c43 403e 3c3b b73d 2880 6abe
00000320: 354d 523d 1a6d 283b e917 003d 1857 3d3d
00000330: a000 24bc b281 c0bd fe9a bcbc 28bf 963d
00000340: 728b c7bd 902e d83d 2e63 a33d d889 353e
00000350: c63a abbd 963e 7cbc 3141 683d 29f4 063e
00000360: 16e5 9f3d f8eb 9b3d 6cff 343b b198 503e
00000370: 6538 f73d 4e21 783c e81b 103e e955 64be
00000380: 213b bcbd 4984 d0bd 099b 30bd b745 72be
00000390: fa43 54bc 940d 8a3c 9e7e 30bc e25e b3bd
000003a0: 4a1d c53b 8997 a13d 5961 15bd 9082 a3bd
000003b0: 77a0 2dbe f8c1 b53d 905f a03d e5ab 223e
000003c0: a571 173e 1ca2 043e 8cd2 2a3d ad63 12be
000003d0: f88c a83d 2dd4 da3d 264f 323e 01cc a13d
000003e0: 762f 4cbc 48dd aeb9 24b1 be3d caf8 72bc
000003f0: a061 39b9 a8b9 2f3e eed6 c63d c578 a5bd

gnn_list.0.proj_edges.net_rsr.4.bias f4 [64]
-0.04363652 -0.032818466 -0.06648156 -0.09450056 0.011905294 -0.023332441 -0.033081606 0.06669774
0.03484215 -0.036536567 -0.0110535 0.04167092 0.019132549 -0.021344755 -0.053141803 -0.05118742
0.0016951234 0.015461168 0.00717143 0.028456837 0.027727615 0.01768292 0.03103282 -0.015599656
-0.028172672 0.0009876606 -0.008849135 0.030612297 0.001295119 0.05580772 -0.03196772 0.05891628
0.027214328 -0.003030438 -0.014387629 -0.0038223837 0.059078053 -0.015969075 0.014661394 -0.02133549
0.016248517 -0.029076891 -0.010902583 -0.020785704 0.006119718 0.008433752 -0.040571745 0.08192964
-0.053487375 -0.0050729355 0.043119594 0.018889409 0.0114495875 -0.05162751 -0.00876559 -0.016593916
-0.032893866 0.006930067 -0.03282051 -0.043703802 -0.021611592 -0.036045868 -0.024454111 -0.021028312
00000000: 35bc 32bd a86c 06bd 7c27 88bd 8289 c1bd
00000010: 6c0e 433c ad23 bfbc 9480 07bd d398 883d
00000020: a4b6 0e3d 5ea7 15bd bd19 35bc 20af 2a3d
00000030: ddbb 9c3c 32db aebc 38ab 59bd e6a9 51bd
00000040: e72e de3a d750 7d3c 51fe ea3b 501e e93c
00000050: 0625 e33c c5db 903c 8a38 fe3c b395 7fbc
00000060: 60ca e6bc 6474 813a f6fb 10bc a4c6 fa3c
00000070: fbc0 a93a a396 643d 95f0 02bd 3252 713d
00000080: 95f0 de3c 509a 46bb 17ba 6bbc f580 7abb
00000090: d4fb 713d 94d1 82bc 5836 703c c4c7 aebc
000000a0: 9c1b 853c a932 eebc bfa0 32bc c846 aabc
000000b0: ea87 c83b b82d 0a3c 8f2e 26bd baca a73d
000000c0: 9415 5bbd de3a a6bb 2c9e 303d f6bd 9a3c
000000d0: 0d97 3b3c 5e77 53bd 8d9d 0fbc f7ef 87bc
000000e0: b8bb 06bd 9e15 e33b cd6e 06bd c202 33bd
000000f0: cb0a b1bc d5a4 13bd fd53 c8bc 9143 acbc

gnn_list.0.proj_edges.net_rtr.0.weight f4 [128, 128]
0.089151986 -0.098047346 0.009636432 0.016836196 0.020974264 -0.09714008 0.022371743 -0.14431442
-0.14106408 -0.06560356 -0.09320822 0.038825948 -0.08833882 -0.13637777 0.024184357 -0.1947903
0.085505575 -0.08209566 0.007820278 0.16209076 -0.16882522 -0.06667815 -0.060092505 0.051995672
-0.05024938 -0.048760556 0.034317393 -0.10685671 -0.05240042 -0.035169385 0.006170688 -0.13788074
-0.13468216 -0.1944082 0.12262108 -0.0026445407 -0.010979076 -0.07555971 -0.17118594 -0.15833464
-0.04560456 -0.03911028 -0.10742707 -0.024800703 -0.09612599 0.1101372 0.010660177 -0.055206854
-0.113741264 0.12622736 -0.1112636 -0.012903172 0.01359125 -0.02203822 -0.011892532 -0.08717179
0.08989644 0.06502228 -0.004554422 0.028421171 -0.011524896 0.044745754 0.065395914 -0.010638234
0.030916989 0.023409864 0.03207181 -0.09719212 -0.040520113 0.027070008 0.026825713 -0.005746476
0.12379812 -0.008016325 0.019663583 0.09157259 0.108340144 -0.007129555 -0.037963115 -0.13039538
-0.028509188 0.23601311 0.12564003 0.19857393 0.04683849 0.06355771 -0.03347103 -0.02778527
0.019699248 0.095590234 0.09838928 0.12459991 -0.19407439 -0.012407461 0.024298256 0.10349085
-0.045066647 -0.03312207 -0.08011207 0.0014270924 -0.17961328 -0.12884194 -0.0518275 -0.14271303
0.07339426 0.0061211023 -0.03933485 -0.10892945 -0.024357723 -0.010024555 -0.046361495 -0.073416606
-0.09308746 0.115523025 0.16342424 -0.067450315 -0.17087832 -0.027054507 0.11804237 0.08750354
0.04622745 -0.03916175 -0.028389018 -0.14741953 0.08738109 0.030937755 0.10460749 0.020774184
0.102136575 0.14290401 0.10626579 0.01800006 0.13770849 0.0053311437 -0.108019 0.19606386
0.1460153 -0.011571956 0.06599207 -0.118520096 0.21654475 -0.10317284 -0.04675494 0.17276727
-0.2329918 0.042599346 -0.078748636 0.049714416 -0.2205387 0.07285437 0.036266442 0.012190536
0.04566347 0.19803064 0.13151616 -0.036095705 -0.029978309 0.06738993 0.08007364 -0.08091698
-0.025415126 0.018312054 -0.06475894 -0.11053501 0.016273588 -0.036042634 0.0028325375 0.039832123
0.051689077 0.2124666 -0.054043487 -0.06515673 0.2063227 0.07428369 0.0930873 0.070812374
0.08079155 1.9502564e-05 0.042703036 0.14678054 -0.05440197 -0.12661672 -0.11376372 0.08841723
0.07214157 -0.00034029095 0.05445557 0.059881765 -0.06022361 -0.14945213 -0.058701806 0.04068487
-0.019101923 -0.05796199 0.018411653 -0.041178472 -0.009238964 -0.08102379 0.23648751 -0.06694778
-0.054512564 -0.07789569 0.16153884 0.09342852 0.1680796 -0.058354523 -0.028784513 0.094527334
-0.027194329 0.12897432 0.17303813 -0.09251608 -1.6068872e-05 -0.1655028 -0.0019787394 0.08325254
-0.03043005 -0.022900704 -0.015319715 -0.14149725 0.018108953 -0.029156312 0.021430364 -0.18868782
-0.1305805 0.03463028 -0.09598021 -0.18043244 -0.045964494 0.09488487 -0.112499535 0.009051688
0.20227522 0.16528572 -0.049464464 -0.06173265 0.05068986 -0.1045552 0.08248146 0.0059081046
0.0077028894 -0.07131293 0.12860955 -0.066594474 -0.29355124 -0.10667017 0.012435938 0.08931149
0.14916481 -0.16895849 0.13745281 -0.17383097 0.019678582 0.07010593 0.23683915 0.0034062215
00000000: 5195 b63d 0ccd c8bd 20e2 1d3c 10ec 893c
00000010: 38d2 ab3c 61f1 c6bd f244 b73c 29c7 13be
00000020: 1a73 10be 295b 86bd f4e3 bebd f507 1f3d
00000030: fcea b4bd 9da6 0bbe 461e c63c 1c77 47be
00000040: 8c1d af3d c521 a8bd a020 003c 1ffb 253e
00000050: 85e0 2cbe 8e8e 88bd 8f23 76bd 6af9 543d
00000060: 4bd2 4dbd 26b9 47bd 6590 0c3d b1d7 dabd
00000070: d3a1 56bd c60d 10bd 7c33 ca3b 9c30 0dbe
00000080: 1fea 09be f112 47be c320 fb3d 0850 2dbb
00000090: 95e1 33bc 0dbf 9abd 5e4b 2fbe 7a22 22be
000000a0: d9cb 3abd 1a32 20bd b902 dcbd d82a cbbc
000000b0: b4dd c4bd 9d8f e13d 06a8 2e3c 9520 62bd
000000c0: 2ef1 e8bd bf41 013e 2cde e3bd d367 53bc
000000d0: d6ad 5e3c 7f89 b4bc e5d8 42bc 2087 b2bd
000000e0: a01b b83d 672a 853d 433d 95bb 84d3 e83c
000000f0: ebd2 3cbc 5347 373d 4bee 853d fd4b 2ebc
00000100: a045 fd3c 0bc6 bf3c bb5d 033d aa0c c7bd
00000110: 6bf8 25bd ecc1 dd3c 99c1 db3c ef4c bcbb
00000120: de89 fd3d e756 03bc 8615 a13c 698a bb3d
00000130: 70e1 dd3d 0b9f e9bb 367f 1bbd 5e86 05be
00000140: 1a8c e9bc 6cad 713e c8a7 003e f756 4b3e
00000150: b7d9 3f3d 8b2a 823d eb18 09bd ef9d e3bc
00000160: 5160 a13c d0c4 c33d 5280 c93d 3d2e ff3d
00000170: 70bb 46be aa48 4bbc 230d c73c 03f3 d33d
00000180: ce97 38bd 02ab 07bd cc11 a4bd 460d bb3a
00000190: 8bec 37be 24ef 03be 1349 54bd 5d23 12be
000001a0: bb4f 963d 8793 c83b 941d 21bd 6716 dfbd
000001b0: d989 c7bc 083e 24bc 8de5 3dbd 725b 96bd
000001c0: a3a4 bebd 5697 ec3d af58 273e 6423 8abd
000001d0: bafa 2ebe 6aa1 ddbc 33c0 f13d 0e35 b33d
000001e0: ff58 3d3d 1268 20bd 1690 e8bc 25f5 16be
000001f0: dbf4 b23d 2d71 fd3c 743c d63d 9f2e aa3c
00000200: fb2c d13d 6e55 123e e1a1 d93d dd74 933c
00000210: 7403 0d3e e0b0 ae3b 1139 ddbd f7c4 483e
00000220: 0985 153e 4d98 3dbc da26 873d aaba f2bd
00000230: e8bd 5d3e 484c d3bd 1c82 3fbd e7e9 303e
00000240: 6795 6ebe a77c 2e3d f746 a1bd 58a1 4b3d
00000250: e6d4 61be ac34 953d 1f8c 143d d0ba 473c
00000260: 9e09 3b3d 8bc8 4a3e 2cac 063e 17d9 13bd
00000270: 1295 f5bc bb03 8a3d a6fd a33d cdb7 a5bd
00000280: 6233 d0bc 2903 963c 56a0 84bd 2e60 e2bd
00000290: 3050 853c 71a1 13bd 18a2 393b 0227 233d
000002a0: edb7 533d d890 593e b45c 5dbd e470 85bd
000002b0: 4246 533e 0c22 983d 8ea4 be3d 1406 913d
000002c0: 0a76 a53d 7099 a337 61e9 2e3d a34d 163e
000002d0: 9ad4 5ebd d0a7 01be f4fc e8bd 1814 b53d
000002e0: f6be 933d 1469 b2b9 ce0c 5f3d 9546 753d
000002f0: 08ad 76bd fb09 19be 4e71 70bd 2ea5 263d
00000300: a37b 9cbc 8d69 6dbd 09d4 963c c2aa 28bd
00000310: 065f 17bc cdef a5bd c829 723e eb1b 89bd
00000320: 9148 5fbd c787 9fbd 706a 253e 7457 bf3d
00000330: 0f1d 2c3e 2705 6fbd 80cd ebbc 8c97 c13d
00000340: a4c6 debc d811 043e e830 313e 1279 bdbd
00000350: a4cb 86b7 9179 29be bdad 01bb 4f80 aa3d
00000360: 7148 f9bc 429a bbbc 8bff 7abc a8e4 10be
00000370: 3a59 943c 38d9 eebc bb8e af3c 6137 41be
00000380: e5b6 05be 7bd8 0d3d 4691 c4bd 48c3 38be
00000390: 4445 3cbd 0053 c23d 2866 e6bd 884d 143c
000003a0: 3c21 4f3e a940 293e 409b 4abd 60db 7cbd
000003b0: 2ca0 4f3d 0921 d6bd 0aec a83d c698 c13b
000003c0: 8568 fc3b 830c 92bd 39b2 033e af62 88bd
000003d0: 594c 96be e475 dabd 1bc0 4b3c f1e8 b63d
000003e0: a9be 183e 7403 2dbe 6ec0 0c3e bf00 32be
000003f0: fa34 a13c b393 8f3d f685 723e ea3a 5f3b

gnn_list.0.proj_edges.net_rtr.0.bias f4 [128]
0.015858613 0.09105079 -0.054599054 0.04187462 0.016954027 0.008390668 0.07413596 0.040646844
-0.028006772 -0.025641717 -0.077003606 -0.013480588 0.033134755 -0.036199644 -0.043992255 0.08205395
-0.09449994 0.046937823 0.056818724 0.01963396 0.035230108 0.06549385 -0.015572961 0.007377681
-0.00747264 0.035671234 0.018130636 -0.02481684 0.03708055 -0.03576811 0.047016352 0.03610739
0.034091283 -0.012362433 -0.016554212 0.010219766 -0.030557925 0.11257026 0.0045978576 -0.0012981908
0.023525491 0.017954458 -0.041209113 -0.010559926 -0.030045288 0.06639937 -0.05341871 -0.016851397
-0.00951448 -0.07481323 0.06094458 0.090883106 0.005676652 -0.04045841 0.005288482 0.007003765
-0.009773447 -0.049369156 -0.075924404 -0.01273974 0.015301275 -0.013829397 -0.046256147 -0.015426719
-0.025387846 0.021614498 0.06713301 0.04749221 -0.062522165 -0.06218508 -0.044490866 0.0424854
0.06585594 0.0020750782 0.0037056587 0.026926618 -0.028552549 -0.012125162 -0.009534186 -0.026270514
0.019596558 0.061786555 -0.029975567 -0.052798092 -0.0023418476 -0.010227292 0.0115285255 -0.010361739
-0.052597225 -0.013625883 -0.016460238 -0.028083002 0.077349775 0.01017709 -0.006855564 0.032780908
0.078304574 -0.026491003 -0.0115580475 -0.04961476 0.04770222 -0.06906591 0.045335352 -0.0377666
-0.027564459 0.037875317 -0.018890701 -0.027527645 0.021831842 -0.013047673 0.031283982 -0.017987758
0.004765892 -0.0019639703 -0.061446175 -0.046540424 -0.014208458 0.008827999 -0.0021479554 -0.05764336
0.0046407403 0.0063823443 0.0021842378 -0.02242094 0.019174246 0.017861584 -0.041291554 -0.043156542
00000000: ece9 813c d678 ba3d 42a3 5fbd b984 2b3d
00000010: 2ce3 8a3c 0379 093c 98d4 973d 4e7d 263d
00000020: 756e e5bc 940e d2bc 11b4 9dbd afdd 5cbc
00000030: 4fb8 073d 1446 14bd 3931 34bd e70b a83d
00000040: 2f89 c1bd e041 403d c0ba 683d 66d7 a03c
00000050: 724d 103d a421 863d bc25 7fbc 79c0 f13b
00000060: 0cdd f4bb 001c 123d b386 943c b04c cbbc
00000070: c6e1 173d 9581 12bd 3894 403d 58e5 133d
00000080: 4da3 0b3d cd8b 4abc b39c 87bc ce70 273c
00000090: 9d54 fabc 3d8b e63d a0a9 963b 0e28 aaba
000000a0: 88b8 c03c 3a15 933c e3ca 28bd 8a03 2dbc
000000b0: 8921 f6bc 65fc 873d 94cd 5abd f10b 8abc
000000c0: 9fe2 1bbc ae37 99bd 06a1 793d ec20 ba3d
000000d0: 3503 ba3b b8b7 25bd 014b ad3b d77f e53b
000000e0: cf20 20bc 5037 4abd 417e 9bbd 58ba 50bc
000000f0: 33b2 7a3c b294 62bc 1677 3dbd 59c0 7cbc
00000100: 2cfa cfbc e310 b13c 087d 893d 3187 423d
00000110: 9f0b 80bd c8b5 7ebd 0e3c 36bd 2c05 2e3d
00000120: 7bdf 863d 09fe 073b a3da 723b 3695 dc3c
00000130: 09e7 e9bc 9ea8 46bc 4635 1cbc 4335 d7bc
00000140: f688 a03c e613 7d3d 528f f5bc d042 58bd
00000150: af79 19bb 5f90 27bc 24e2 3c3c 49c4 29bc
00000160: 3070 57bd 183f 5fbc 9fd7 86bc 530e e6bc
00000170: 8f69 9e3d cfbd 263c a4a4 e0bb 4645 063d
00000180: 265e a03d a903 d9bc f75d 3dbc d938 4bbd
00000190: 6763 433d 6e72 8dbd 90b1 393d 26b1 1abd
000001a0: dcce e1bc 2623 1b3d acc0 9abc a881 e1bc
000001b0: b1d8 b23c e8c5 55bc a223 003d 105b 93bc
000001c0: 332b 9c3b f4b5 00bb fcae 7bbd 2ca1 3ebd
000001d0: 98ca 68bc 50a3 103c b6c4 0cbb 721b 6cbd
000001e0: 5a11 983b fc22 d13b 6e25 0f3b 1fac b7bc
000001f0: 4f13 9d3c 7552 923c 5521 29bd eac4 30bd

gnn_list.0.proj_edges.net_rtr.3.weight f4 [128]
1.062774 1.024651 0.9773431 1.0159857 1.0324777 0.9951958 1.1226876 1.0440068
0.95091754 0.9992023 1.0206234 0.95400804 1.0142034 0.99563855 1.047957 1.0624346
1.0337404 1.0345615 1.0592619 0.96047986 1.0772444 0.9879236 0.9682023 0.96101373
1.0350945 1.0488516 1.0442401 1.0082006 1.0792583 0.9297811 1.0493464 1.0174218
1.0088814 1.015322 0.91008484 0.9568122 1.0475047 1.1171736 0.95885944 0.9895173
1.0287671 0.93457747 0.93929905 0.9687809 1.026956 1.1004126 0.99334466 0.98162997
1.0319948 0.9986586 1.0186305 0.9866846 0.9918769 0.9974763 1.0333626 0.97625464
0.9935936 0.9609664 1.0303477 1.0105962 1.0269992 0.9329447 1.0934383 0.974931
1.002718 0.9847315 1.0508084 1.0925846 1.0190133 1.0317706 1.0208534 0.96536225
1.1091222 1.047923 1.000989 0.9924129 0.9624307 1.0378141 1.0010806 1.0592605
1.0099384 1.0637081 1.0246412 1.0165294 1.0005972 0.96896213 1.04341 0.9812817
0.97021675 1.0115889 1.0028456 1.0765833 1.0416492 1.0879005 0.9591933 1.0313787
0.97152054 0.9449512 1.039651 0.9285114 1.0704858 1.0232236 0.98613065 1.0073029
0.946316 0.9830602 1.039438 0.943258 1.0270635 1.1319234 1.0861285 1.0295728
0.9930321 1.0037043 0.9812488 1.0311068 0.9321281 1.0902888 0.99353176 0.9918536
1.0331945 0.9809829 1.0559632 0.9400556 1.011616 0.96560496 0.9945003 0.99001557
00000000: fa08 883f c427 833f 2833 7a3f d20b 823f
00000010: 3b28 843f 27c5 7e3f 3ab4 8f3f 04a2 853f
00000020: 556f 733f b9cb 7f3f caa3 823f df39 743f
00000030: 6bd1 813f 2be2 7e3f 7423 863f dbfd 873f
00000040: 9b51 843f 836c 843f e595 873f 02e2 753f
00000050: 25e3 893f 90e8 7c3f 1bdc 773f ff04 763f
00000060: fa7d 843f c540 863f a9a9 853f b80c 813f
00000070: 2325 8a3f 2206 6e3f fc50 863f e13a 823f
00000080: 0723 813f 12f6 813f 52fb 683f a5f1 743f
00000090: a214 863f 8bff 8e3f d077 753f 0151 7d3f
000000a0: a4ae 833f 7840 6f3f e775 703f 0602 783f
000000b0: 4b73 833f 52da 8c3f d64b 7e3f 1a4c 7b3f
000000c0: 6818 843f 17a8 7f3f 7c62 823f 5d97 7c3f
000000d0: a5eb 7d3f 9b5a 7f3f 3a45 843f d3eb 793f
000000e0: 265c 7e3f e501 763f 6fe2 833f 375b 813f
000000f0: b674 833f 77d5 6e3f c9f5 8b3f 1495 793f
00000100: 1059 803f 5d17 7c3f e480 863f d0d9 8b3f
00000110: 076f 823f 0f11 843f 53ab 823f fb21 773f
00000120: b7f7 8d3f 5722 863f 6820 803f c60e 7e3f
00000130: dc61 763f 18d7 843f 6923 803f d995 873f
00000140: a945 813f 9627 883f 7127 833f a31d 823f
00000150: 9213 803f e70d 783f 758e 853f 4735 7b3f
00000160: 2060 783f bf7b 813f 3f5d 803f 7bcd 893f
00000170: c354 853f 5340 8b3f b18d 753f 3804 843f
00000180: 92b5 783f 52e8 713f 4913 853f ecb2 6d3f
00000190: ae05 893f fef8 823f 0f73 7c3f 4def 803f
000001a0: c441 723f d5a9 7b3f 4e0c 853f 5b79 713f
000001b0: d176 833f dee2 903f 4206 8b3f 0bc9 833f
000001c0: 5a37 7e3f 6279 803f 1f33 7b3f 4ffb 833f
000001d0: f29f 6e3f 958e 8b3f 1958 7e3f 1eea 7d3f
000001e0: b83f 843f b221 7b3f cd29 873f 7ca7 703f
000001f0: a27c 813f e331 773f 9297 7e3f a971 7d3f

gnn_list.0.proj_edges.net_rtr.3.bias f4 [128]
-0.020957876 0.07159854 -0.045960646 0.047859415 0.011313402 0.045256946 0.1157499 0.08041545
-0.020946106 -0.09382664 -0.07200667 -0.0334006 0.07412436 -0.06852761 -0.08142622 0.060629446
-0.09626467 0.070979916 0.04238882 0.029684192 0.05403603 0.07263126 -0.009157112 -0.014326911
-0.013105239 0.083757326 0.0046986216 -0.04851793 0.028799733 0.00964436 0.056931432 0.045950674
0.05655862 -0.03670456 0.047210626 0.04901727 -0.042663123 0.10234009 0.055812314 -0.024377273
-0.033248916 0.055657677 -0.022912642 0.025762824 -0.04474134 0.06302804 -0.032694407 0.027023926
-0.014091298 -0.069155626 0.08405591 0.05616776 0.040121783 -0.0069596064 -0.024573997 0.015784837
-0.009957697 -0.04072673 -0.12738316 -0.0062178685 -0.013440912 0.0130684385 -0.083755866 0.03011918
0.03004229 0.05488155 0.10772588 0.0013690892 -0.06209159 -0.07033091 -0.050454363 0.034237944
0.09633293 -0.033909246 -0.05191357 0.0328416 -0.010611247 -0.028659154 -0.040034577 -0.06128278
0.051044166 0.044289753 -0.027867513 -0.08127793 -0.046650097 0.012340825 0.0022952922 -0.013354847
0.017516859 -0.015888171 -0.03000611 -0.038098816 0.06178996 -0.008037327 -0.0043182704 0.04026491
0.12681329 -0.00551762 -0.056977164 -0.02376117 0.057958186 -0.0918832 0.025225706 -0.0038436588
-0.02666173 0.04630077 -0.030246302 -0.02796995 0.027554352 -0.07479353 0.020184094 -0.03503551
-0.018094739 0.00046010013 -0.05860372 -0.07601004 0.06507598 -0.05066761 -0.0143317245 -0.01639147
0.039737787 0.0034676483 -0.052230388 0.044824738 0.028207812 0.012256073 -0.060482357 -0.05485688
00000000: daaf abbc 41a2 923d 3b41 3cbd 3c08 443d
00000010: d95b 393c 595f 393d 490e ed3d dbb0 a43d
00000020: 2b97 abbc 2e28 c0bd 3c78 93bd 11cf 08bd
00000030: 83ce 973d 3458 8cbd cac2 a6bd 9556 783d
00000040: 6926 c5bd eb5d 913d e69f 2d3d 432c f33c
00000050: e254 5d3d b3bf 943d b607 16bc 6cbb 6abc
00000060: 5bb7 56bc f688 ab3d e5f6 993b bdba 46bd
00000070: 6bed eb3c 6103 1e3c ef30 693d c636 3c3d
00000080: 03aa 673d 8557 16bd ee5f 413d 55c6 483d
00000090: 87bf 2ebd ae97 d13d 749b 643d d9b2 c7bc
000000a0: 0430 08bd 4ef9 633d 4bb3 bbbc 8f0c d33c
000000b0: b242 37bd d814 813d 92ea 05bd 4861 dd3c
000000c0: 30df 66bc 77a1 8dbd 8125 ac3d 2a10 663d
000000d0: bd56 243d 690d e4bb 684f c9bc 344f 813c
000000e0: 9c25 23bc 12d1 26bd bb70 02be 43bf cbbb
000000f0: 4537 5cbc 011d 563c 3288 abbd 80bc f63c
00000100: 401b f63c 7acb 603d 639f dc3d 0373 b33a
00000110: c053 7ebd a709 90bd 3ca9 4ebd 163d 0c3d
00000120: 334a c53d 6ce4 0abd 53a3 54bd ea84 063d
00000130: ccda 2dbc 9ac6 eabc 4cfb 23bd a703 7bbd
00000140: b013 513d 2c69 353d 694a e4bc 0b75 a6bd
00000150: 2c14 3fbd 2c31 4a3c 9d6c 163b 4ace 5abc
00000160: 847f 8f3c e927 82bc 60cf f5bc 810d 1cbd
00000170: 7817 7d3d feae 03bc 4780 8dbb d1ec 243d
00000180: 58db 013e 27cd b4bb e360 69bd c9a6 c2bc
00000190: 9065 6d3d 422d bcbd 24a6 ce3c e5e5 7bbb
000001a0: b369 dabc e0a5 3d3d 18c7 f7bc 3d21 e5bc
000001b0: aab9 e13c 5a2d 99bd 1d59 a53c 6581 0fbd
000001c0: 6b3b 94bc 9839 f139 740a 70bd 27ab 9bbd
000001d0: 8e46 853d d788 4fbd 9ccf 6abc 6747 86bc
000001e0: 17c4 223d 7c41 633b 88ef 55bd 259a 373d
000001f0: 1214 e73c b2cd 483c 59bc 77bd 9cb1 60bd

gnn_list.0.proj_edges.net_rtr.4.weight f4 [64, 128]
-0.11373649 -0.048146658 0.010709485 -0.026280712 0.055157878 -0.05013611 -0.13757859 0.038202167
0.13022137 0.109929755 0.11966305 -0.010302396 -0.1617924 0.16088566 -0.017922215 -0.1172493
0.06836359 -0.12989499 0.016392695 0.00023683533 -0.13197467 -0.17015041 -0.112730645 0.030050429
0.013219237 -0.0051664063 0.06254668 0.013979885 -0.010771799 -0.030224819 -0.1500913 0.036385328
-0.05168459 0.041538537 0.15895848 0.033339195 0.064886905 0.07149088 0.03219062 0.02436563
0.11049124 0.1720832 -0.09871646 -0.073244974 0.01804115 -0.051899713 0.08314238 0.07240985
-0.022784486 -0.029538004 -0.09878551 0.07511056 -0.13556972 -0.050474912 0.037934892 -0.06523117
0.015096649 -0.16585042 0.1582737 -0.0046701664 0.1812786 -0.12740771 0.09667296 0.08224569
0.05360183 0.06404367 -0.15490358 0.15412167 0.006012312 0.17317632 -0.10063328 -0.19421609
-0.27193716 0.00961388 -0.116016835 -0.19718917 0.024486741 0.15045343 0.12794161 0.03055523
0.03161913 -0.073757 -0.11598893 0.009889942 -0.101918325 0.17845118 0.05248346 -0.124562785
-0.093300335 -0.09410357 0.054825366 -0.16521509 0.12882303 0.086926326 -0.06265999 -0.13160712
0.035579138 0.04824663 0.052105606 0.050353862 -0.07655045 0.060990214 -0.09135879 0.043097064
-0.10233451 0.054084096 0.10419161 -0.16286933 -0.12555563 0.168291 0.004047838 -0.19582976
0.032915957 0.14338933 0.10045072 0.031578057 -0.025695106 0.0395049 -0.10632069 0.006805478
0.008461275 -0.05349726 -0.07085136 -0.12867674 -0.057984885 -0.061136495 -0.03657521 -0.11190323
-0.14138739 -0.093840085 -0.16261256 0.20912574 0.1266199 -0.062409885 -0.014686867 0.26594216
-0.07290605 -0.016614795 -0.06909668 0.07984003 0.032976918 -0.15065008 -0.12934072 -0.08369323
0.042433687 -0.16819566 -0.13247877 0.030360408 0.043119803 0.20524211 0.07093221 -0.16672978
-0.0688138 0.15224509 0.1851502 0.00970642 -0.11134794 0.01850803 -0.14219667 0.12679377
-0.06808325 0.038389705 0.012443771 -0.14070666 0.091476254 -0.00096796325 0.08649268 0.25112998
0.29044318 0.22425522 -0.16622467 -0.05219215 -0.07353348 -0.17773473 0.2188488 0.048559774
0.3520828 0.037177872 0.09356662 -0.028254442 0.062744506 -0.12624429 0.17867063 -0.08935232
0.00054639124 -0.06019292 -0.042100236 -0.09536384 -0.012044597 0.06428621 -0.05609763 -0.07016737
-0.019296907 0.0826269 -0.020514734 -0.12451591 -0.1916963 0.08252893 0.09472483 -0.063095964
-0.24998568 0.23243122 0.12477475 0.17640382 -0.27973324 -0.17553277 0.06385358 0.13848545
0.045071192 -0.070833445 0.07229561 -0.011958258 0.064137936 0.16402571 0.08675934 -0.09254814
-0.006009255 0.026120372 -0.22967543 0.14310713 -0.16863441 0.055342395 -0.14003089 0.20304464
-0.004770023 0.07906155 -0.22495332 -0.10325533 -0.18200111 0.14813307 0.02871119 -0.16079086
-0.11494824 0.025290994 0.039180618 0.013316093 0.18773572 -0.28393143 -0.15983845 0.23350832
-0.055258386 -0.1085736 -0.014527637 -0.09894289 0.048145287 -0.0029154778 -0.15150902 -0.061494514
-0.043689102 -0.25182247 0.06933683 -0.03700862 -0.056433026 0.02502829 -0.091579095 -0.103406765
00000000: adee e8bd 6e35 45bd d676 2f3c a64a d7bc
00000010: 3aed 613d 865b 4dbd 67e1 0cbe e079 1c3d
00000020: c058 053e da22 e13d e711 f53d 61cb 28bc
00000030: e8ac 25be 36bf 243e 9cd1 92bc 6720 f0bd
00000040: 3602 8c3d 3103 05be f949 863c 0057 7839
00000050: 5e24 07be e93b 2ebe 53df e6bd 512c f63c
00000060: 8095 583c f54a a9bb 7918 803d e30b 653c
00000070: 337c 30bc 0a9a f7bc 89b1 19be c808 153d
00000080: 38b3 53bd 5024 2a3d 03c6 223e ae8e 083d
00000090: 6de3 843d cf69 923d 50da 033d 6e9a c73c
000000a0: 3b49 e23d 9436 303e db2b cabd 7601 96bd
000000b0: 09cb 933c cb94 54bd 8d46 aa3d 9e4b 943d
000000c0: 88a6 babc aff9 f1bc 0f50 cabd 91d3 993d
000000d0: cad2 0abe c8be 4ebd 9e61 1b3d eb97 85bd
000000e0: ef57 773c b1d4 29be 8012 223e 3208 99bb
000000f0: 19a1 393e 2b77 02be 79fc c53d 6e70 a83d
00000100: 988d 5b3d 5429 833d 0b9f 1ebe 12d2 1d3e
00000110: ee02 c53b 2255 313e d218 cebd 95e0 46be
00000120: 593b 8bbe 8983 1d3c 3c9a edbd f5eb 49be
00000130: 6b98 c83c 7710 1a3e 2003 033e f64e fa3c
00000140: 1083 013d e90d 97bd 9b8b edbd 6c09 223c
00000150: 8eba d0bd e8bb 363e e6f8 563d c61a ffbd
00000160: 3f14 bfbd 5fb9 c0bd 9090 603d 252e 29be
00000170: 2fea 033e 6e06 b23d e153 80bd 04c4 06be
00000180: 6ebb 113d 429e 453d b06c 553d da3f 4e3d
00000190: 7bc6 9cbd e0d0 793d 511a bbbd 8c86 303d
000001a0: c194 d1bd 4987 5d3d 6962 d53d 38c7 26be
000001b0: a891 00be 7a54 2c3e baa3 843b 9987 48be
000001c0: e2d2 063d a7d4 123e 1bb9 cd3d fe57 013d
000001d0: 8b7e d2bc e4cf 213d a9be d9bd 7d00 df3b
000001e0: 29a1 0a3c f11f 5bbd 851a 91bd d6c3 03be
000001f0: 8f81 6dbd 436a 7abd e3cf 15bd 852d e5bd
00000200: dbc7 10be 3b2f c0bd e883 26be 0f25 563e
00000210: a6a8 013e 82a1 7fbd 2fa1 70bc 9229 883e
00000220: c44f 95bd c01b 88bc 8f82 8dbd 2b83 a33d
00000230: ce12 073d 0444 1abe e571 04be 5b67 abbd
00000240: f2ce 2d3d 7c3b 2cbe 84a8 07be 64b6 f83c
00000250: 649e 303d fd2a 523e e844 913d 36bb 2abe
00000260: 40ee 8cbd 23e6 1b3e 0498 3d3e ad07 1f3c
00000270: 640a e4bd 279e 973c 019c 11be 3ad6 013e
00000280: 3b6f 8bbd 863e 1d3d f5e0 4b3c 6815 10be
00000290: e757 bb3d eabe 7dba 1323 b13d 1c94 803e
000002a0: f8b4 943e 29a3 653e cd36 2abe 70c7 55bd
000002b0: b998 96bd 1800 36be e619 603e 9de6 463d
000002c0: 3244 b43e d347 183d db9f bf3d dc75 e7bc
000002d0: 3180 803d 2f46 01be 6ff5 363e 59fe b6bd
000002e0: b23b 0f3a da8c 76bd 4c71 2cbd 1e4e c3bd
000002f0: b456 45bc 7da8 833d a1c6 65bd e9b3 8fbd
00000300: 8c14 9ebc 4b38 a93d 840e a8bc 3302 ffbd
00000310: 094c 44be ed04 a93d 17ff c13d 7538 81bd
00000320: 3ffc 7fbe 7302 6e3e e789 ff3d 34a3 343e
00000330: 3239 8fbe ddbe 33be aac5 823d 21cf 0d3e
00000340: 929c 383d 2011 91bd b90f 943d 92ec 43bc
00000350: c05a 833d 5bf6 273e e1ae b13d e189 bdbd
00000360: 49e9 c4bb 64fa d53c 0930 6bbe ad8a 123e
00000370: 80ae 2cbe b5ae 623d 4264 0fbe efea 4f3e
00000380: da4d 9cbb 06eb a13d 2a5a 66be 8877 d3bd
00000390: 805e 3abe 32b0 173e bb33 eb3c 5ca6 24be
000003a0: fc69 ebbd 0f2f cf3c db7b 203d be2b 5a3c
000003b0: cb3d 403e 765f 91be b1ac 23be ce1c 6f3e
000003c0: 9e56 62bd d65b debd 5305 6ebc 92a2 cabd
000003d0: fe33 453d 9a11 3fbb 2e25 1bbe ace1 7bbd
000003e0: 58f3 32bd e0ee 80be 7800 8e3d 5a96 17bd
000003f0: 5126 67bd 2108 cd3c d28d bbbd edc6 d3bd

gnn_list.0.proj_edges.net_rtr.4.bias f4 [64]
-0.032122348 -0.0041148434 -0.026637975 0.026759973 -0.050528415 -0.0011023821 -0.016135404 0.024154915
0.06478803 0.0920442 0.09598616 -0.0067879194 0.009390374 0.0053741345 0.034404352 -0.024568561
0.013953916 -0.037336286 -0.071740694 0.044185095 -0.10139867 0.01559709 0.06409456 0.01076474
-0.08881568 0.023264704 -0.013775842 0.089055195 -0.07145632 0.076329835 -0.013711461 0.03839934
0.03611372 0.07002872 0.10152252 -0.025431173 -0.0024218434 -0.017777195 0.062835895 -0.060300637
0.0442998 0.009314926 -0.0091348225 -0.044742256 -0.010035996 0.00591479 -0.0046281535 0.015981393
-0.019159557 0.018566687 0.03149446 0.032218203 0.058644168 0.07775799 -0.058410056 0.025601018
-0.017401906 -0.062693566 0.05656391 0.0017267497 -0.06727156 -0.014390932 -0.03941452 0.035882015
00000000: b992 03bd cfd5 86bb e237 dabc bb37 db3c
00000010: e2f6 4ebd ce7d 90ba 652e 84bc 87e0 c53c
00000020: 96af 843d ab81 bc3d 6494 c43d 326d debb
00000030: 15da 193c 8219 b03b 94eb 0c3d 0244 c9bc
00000040: f79e 643c efed 18bd c9ec 92bd 6efb 343d
00000050: 1baa cfbd f08a 7f3c 0244 833d 985e 303c
00000060: ffe4 b5bd 9f95 be3c 12b4 61bc 9262 b63d
00000070: b157 92bd d152 9c3d 09a6 60bc a048 1d3d
00000080: fbeb 133d 386b 8f3d 0aeb cf3d 0955 d0bc
00000090: cab7 1ebb 7ba1 91bc 1bb0 803d cdfd 76bd
000000a0: b573 353d a29d 183c 39aa 15bc a843 37bd
000000b0: 056e 24bc dbd0 c13b c4a7 97bb 69eb 823c
000000c0: 81f4 9cbc 2a19 983c 5600 013d 3cf7 033d
000000d0: de34 703d 953f 9f3d 623f 6fbd 3ab9 d13c
000000e0: 718e 8ebc 7c65 80bd 8faf 673d 1b54 e23a
000000f0: acc5 89bd f2c7 6bbc 1f71 21bd 05f9 123d
